4class_model (6).pth (torch, 90888 bytes, 42 tensors)

bn_1.weight f4 [8]
0	0x3f5ea360	0.8696804
1	0x3f76dd28	0.9643121
2	0x3f8a2798	1.0793333
3	0x3f938647	1.1525353
4	0x3f70d3f6	0.94073427
5	0x3f81118b	1.0083479
6	0x3f6bb190	0.92067814
7	0x3f79b74f	0.9754533

bn_1.bias f4 [8]
0	0x3d933c3f	0.071892254
1	0xbd4e7c20	-0.050411344
2	0xbe07f505	-0.13277061
3	0xbda9a237	-0.08282893
4	0xbe1a87a8	-0.15090811
5	0xbd768dac	-0.060193703
6	0xbcdd4a1d	-0.027012879
7	0x3d18e1cd	0.037324715

bn_1.running_mean f4 [8]
0	0x3eae42c2	0.34035307
1	0x3e879bdc	0.264861
2	0x3e8aaec4	0.2708646
3	0x3e2bda19	0.16782416
4	0x3e9c6ebd	0.30553237
5	0x3ea60b3d	0.3243045
6	0x3e61b47d	0.22041507
7	0x3ec25476	0.37955064

bn_1.running_var f4 [8]
0	0x3e4a3f5a	0.19750729
1	0x3ed1d790	0.40984774
2	0x3f0c00fc	0.54689
3	0x3d7ec2e9	0.0621976
4	0x3e95ef21	0.29284003
5	0x3e4ddbc1	0.2010336
6	0x3e9d3f15	0.3071219
7	0x3f4deceb	0.80439633

bn_2.weight f4 [12]
0	0x3f6cfd41	0.92573935
1	0x3f8e4fa3	1.1118053
2	0x3f55161a	0.8323685
3	0x3f565a47	0.837315
4	0x3f9211ef	1.1411723
5	0x3f5700c6	0.83985555
6	0x3f7770ca	0.9665648
7	0x3f6e1b94	0.9301083
8	0x3f3ca2bc	0.7368581
9	0x3f83d749	1.0300075
10	0x3f807b19	1.0037566
11	0x3f4e467c	0.805763

bn_2.bias f4 [12]
0	0x3d8994ee	0.06717859
1	0xbd2056d6	-0.039145313
2	0x3cac00b4	0.020996429
3	0x3d8288d3	0.063737534
4	0x3da788c0	0.0818038
5	0x3e16f2a4	0.14740998
6	0xbd04b5df	-0.03240001
7	0x3db28ca3	0.087182306
8	0x3c63ca03	0.013903144
9	0xbdba3a5e	-0.09093164
10	0xbd905ee8	-0.07049352
11	0x3c18a2bc	0.009316143

bn_2.running_mean f4 [12]
0	0x3ee946f4	0.45561945
1	0x3e9bf52e	0.30460495
2	0x3e5a9d8a	0.21349159
3	0x3e66a15c	0.22522491
4	0x3ed44f6d	0.41466847
5	0x3e410203	0.18848424
6	0x3e82cece	0.25548404
7	0x3eab9543	0.33512315
8	0x3dbb854b	0.09156283
9	0x3e5ef048	0.21771348
10	0x3e80af21	0.25133613
11	0x3e2c3b23	0.16819434

bn_2.running_var f4 [12]
0	0x3f03d68a	0.51499236
1	0x3e64f850	0.22360349
2	0x3e4c5e28	0.19957793
3	0x3e50b850	0.2038281
4	0x3ecda8e1	0.40167907
5	0x3e93c8f2	0.28864247
6	0x3e5818b6	0.21103176
7	0x3e882fdc	0.26599014
8	0x3d53ac2b	0.051677864
9	0x3dd8b96c	0.105822414
10	0x3e83626e	0.25661033
11	0x3e06459e	0.13112494

bn_3.weight f4 [16]
0	0x3f26f8b6	0.6522325
1	0x3f45a751	0.7720843
2	0x3f5cd2b2	0.86258996
3	0x3f765e71	0.96237856
4	0x3f135f8f	0.57567686
5	0x3f381167	0.71901554
6	0x3f4e8d99	0.8068481
7	0x3f82f176	1.0229938
8	0x3f0bb6fa	0.54576075
9	0x3f56810a	0.8379065
10	0x3f4f7f56	0.81053674
11	0x3f6dd865	0.92908317
12	0x3eec7af5	0.4618756
13	0x3f5f79de	0.8729533
14	0x3f3d02a7	0.7383217
15	0x3f6a5115	0.9152997

bn_3.bias f4 [16]
0	0xbd72ab90	-0.059245646
1	0xbd8ba4b9	-0.06818528
2	0x3c96b94a	0.0183989
3	0xbdfeb512	-0.1243688
4	0x3ca69077	0.020332558
5	0xbd8bdb85	-0.068289794
6	0xbad07340	-0.0015903488
7	0xbd6084cd	-0.05481415
8	0x3d1c099f	0.038095113
9	0xbd370f29	-0.044692192
10	0x3e765d35	0.24058993
11	0x3d2fa870	0.042885244
12	0xbd52273d	-0.05130695
13	0xbe03f50b	-0.12886445
14	0x3c15f022	0.00915149
15	0xbdad47fb	-0.08460995

bn_3.running_mean f4 [16]
0	0x3ec1ab6b	0.37826094
1	0x3e76e0bc	0.24109167
2	0x3e90ff71	0.28319886
3	0x3e982aef	0.29720256
4	0x3e41d8cd	0.18930359
5	0x3e3ce3d1	0.1844628
6	0x3e58b804	0.21163946
7	0x3eb8c99c	0.36091316
8	0x3dfd0e14	0.12356201
9	0x3ed9404c	0.42431867
10	0x3e6ab997	0.2292236
11	0x3ec02714	0.37529814
12	0x3e299b09	0.16563047
13	0x3e36f3b5	0.17866404
14	0x3e82689f	0.25470445
15	0x3f0ac484	0.5420611

bn_3.running_var f4 [16]
0	0x3ec13197	0.37733147
1	0x3e2a45f9	0.16628255
2	0x3e7676bb	0.2406873
3	0x3e6b32a2	0.22968534
4	0x3e317eae	0.1733348
5	0x3dfb0f63	0.12258794
6	0x3e3115ba	0.17293444
7	0x3ed94248	0.4243338
8	0x3d4872c1	0.048937563
9	0x3ed909b0	0.42390203
10	0x3e59ca9d	0.21268697
11	0x3e96e5af	0.2947211
12	0x3d9d0961	0.076678045
13	0x3e23b22a	0.15985933
14	0x3e156cc9	0.1459228
15	0x3ecc8823	0.39947614

bn1d_1.weight f4 [12]
0	0x3f800000	1.0
1	0x3f800000	1.0
2	0x3f800000	1.0
3	0x3f800000	1.0
4	0x3f800000	1.0
5	0x3f800000	1.0
6	0x3f800000	1.0
7	0x3f800000	1.0
8	0x3f800000	1.0
9	0x3f800000	1.0
10	0x3f800000	1.0
11	0x3f800000	1.0

bn1d_1.bias f4 [12]
0	0x00000000	0.0
1	0x00000000	0.0
2	0x00000000	0.0
3	0x00000000	0.0
4	0x00000000	0.0
5	0x00000000	0.0
6	0x00000000	0.0
7	0x00000000	0.0
8	0x00000000	0.0
9	0x00000000	0.0
10	0x00000000	0.0
11	0x00000000	0.0

bn1d_1.running_mean f4 [12]
0	0x00000000	0.0
1	0x00000000	0.0
2	0x00000000	0.0
3	0x00000000	0.0
4	0x00000000	0.0
5	0x00000000	0.0
6	0x00000000	0.0
7	0x00000000	0.0
8	0x00000000	0.0
9	0x00000000	0.0
10	0x00000000	0.0
11	0x00000000	0.0

bn1d_1.running_var f4 [12]
0	0x3f800000	1.0
1	0x3f800000	1.0
2	0x3f800000	1.0
3	0x3f800000	1.0
4	0x3f800000	1.0
5	0x3f800000	1.0
6	0x3f800000	1.0
7	0x3f800000	1.0
8	0x3f800000	1.0
9	0x3f800000	1.0
10	0x3f800000	1.0
11	0x3f800000	1.0

bn1d.weight f4 [64]
0	0x3f3c424c	0.7353866
1	0x3bd83f32	0.0065993303
2	0x3e2d3221	0.16913654
3	0x3c93facd	0.018063927
4	0x3ea9da24	0.3317424
5	0x3e539638	0.20662773
6	0x3debe6fa	0.11518665
7	0x3f2e527b	0.68094605
8	0x3e851902	0.25995642
9	0x3d04b4f9	0.03239915
10	0x3f0e6994	0.5562985
11	0x3eb06780	0.34453964
12	0x3bdfb461	0.0068269228
13	0x3ca12c34	0.019674398
14	0x3cb50945	0.022099147
15	0x3e4b7279	0.19867887
16	0x3d742dae	0.059613876
17	0x3f0baae4	0.54557633
18	0x3ecbd210	0.39808702
19	0x3f145da5	0.5795539
20	0x3ecdf05b	0.4022244
21	0x3e2620a4	0.16223389
22	0x3f45eac0	0.77311325
23	0x3ef71e0d	0.48265114
24	0x3ed4a4e9	0.41532066
25	0x3eed5312	0.4635244
26	0x3e79e41a	0.2440342
27	0x3c81960a	0.015818615
28	0x3c810ce3	0.015753215
29	0x3f170652	0.5899402
30	0x3f26cd3e	0.65156925
31	0x3e49f22f	0.19721292
32	0x3f2ab5e2	0.6668378
33	0x3e86bdae	0.2631659
34	0x3d48bbd3	0.049007248
35	0x3ee4137c	0.44546115
36	0x3c18cb2b	0.009325783
37	0x3f59b8ea	0.8504778
38	0x3f398852	0.72473633
39	0x3eda0fdd	0.42590228
40	0x3cb43816	0.0219994
41	0x3f03ab74	0.5143349
42	0x3f40f48a	0.75373137
43	0x3efa8bf7	0.4893491
44	0x3dbcb6d2	0.09214558
45	0x3e6c4e16	0.23076662
46	0x3ecd4adb	0.40096173
47	0x3d4f04cc	0.050541684
48	0x3f05fccb	0.52338856
49	0x3db3bb7d	0.08775995
50	0x3d2682ae	0.04065197
51	0x3d2bc20c	0.041933104
52	0x3ecfe0cd	0.40601197
53	0x3ef9f068	0.48816228
54	0x3ed970c2	0.4246884
55	0x3daf71bc	0.08566615
56	0x3eaf3367	0.34218904
57	0x3c9484ae	0.018129673
58	0x3f0298e1	0.51014525
59	0x3cb31440	0.021860242
60	0x3e26b5e4	0.16280323
61	0x3c9776f4	0.018489338
62	0x3f16e6d2	0.58945954
63	0x3ef572b8	0.47939086

bn1d.bias f4 [64]
0	0x3e077818	0.13229406
1	0xac3c5787	-2.6764994e-12
2	0x3d84ab57	0.06477993
3	0x3c0375dc	0.008023705
4	0x3d49f4b0	0.049305618
5	0x3d19053f	0.03735852
6	0x3cb15545	0.021647105
7	0x3da53bb6	0.080680296
8	0x3de0be50	0.10973799
9	0x3c41848a	0.011811385
10	0x3e1496e3	0.14510684
11	0x3df3bebd	0.11901615
12	0x3be62000	0.0070228577
13	0x3bbdf0cc	0.0057965275
14	0x3c06a2cf	0.0082175275
15	0x3d37a561	0.044835452
16	0x3c879530	0.01655063
17	0x3e0aaf59	0.13543452
18	0x3df6a442	0.120430484
19	0x3d3b869e	0.045782678
20	0x3dd16b65	0.10225562
21	0x3d0d2ce9	0.034466658
22	0x3e08074e	0.13284037
23	0x3dba4a7b	0.09096237
24	0x3dcac40f	0.099006765
25	0x3d801b64	0.06255224
26	0x3d2d84a7	0.042362835
27	0x3cb82f7b	0.022483578
28	0x3c0be640	0.008538783
29	0x3d96d2ed	0.0736445
30	0x3d76d154	0.060258225
31	0x3d08465e	0.033270232
32	0x3dd013ec	0.1016005
33	0x3e1b7450	0.15181088
34	0x3c4ef2bb	0.012631114
35	0x3e17b26f	0.14814161
36	0x3c89aca0	0.016805947
37	0x3e10c2a9	0.14136757
38	0x3d8568fd	0.065141656
39	0x3dc06bf0	0.093955874
40	0x3bd5902b	0.0065174303
41	0x3debb934	0.11509934
42	0x3e00b6eb	0.12569778
43	0x3dbe1933	0.0928215
44	0x3dbc5a41	0.09196902
45	0x3d2e1704	0.04250242
46	0x3e2c2599	0.16811217
47	0x3d835399	0.06412429
48	0x3e061b4f	0.13096355
49	0x3dc008b2	0.093766585
50	0x3c344c01	0.011004449
51	0x3d3b17c6	0.04567697
52	0x3df62193	0.120181225
53	0x3dcd7aac	0.100331634
54	0x3e15c51c	0.14625973
55	0x3daecb37	0.08534854
56	0x3dc3bbe5	0.095573224
57	0x3b983b4c	0.0046457406
58	0x3e19c0bc	0.15014929
59	0x3c33c44b	0.010972093
60	0x3d1cf4dc	0.038319454
61	0x3beff48c	0.0073228534
62	0x3da37ba5	0.07982568
63	0x3db52513	0.08844962

bn1d.running_mean f4 [64]
0	0x3f8483ec	1.0352759
1	0xb427f6a5	-1.5642816e-07
2	0xbeab2baf	-0.33431765
3	0xbefa0a92	-0.4883619
4	0x3f154901	0.5831452
5	0xbe2af80d	-0.16696186
6	0x3ee94066	0.45556945
7	0xbf1f2d68	-0.6217866
8	0x3fe1a3c2	1.76281
9	0x3f4e6860	0.80628014
10	0x3fef2d90	1.868578
11	0x3fd8c56c	1.6935248
12	0x3f172873	0.59046096
13	0x3f06ec50	0.52704334
14	0x3f23f209	0.6404119
15	0xbe23c97c	-0.15994829
16	0x3da1d25e	0.079014525
17	0x400a8fb6	2.1650214
18	0x3faf7100	1.370636
19	0x3f846bba	1.0345376
20	0x3fc35ce8	1.5262728
21	0xbf812fba	-1.009269
22	0xbf6fb530	-0.93635845
23	0x3fa7c44a	1.3106778
24	0x3f8d3b51	1.1033727
25	0x3f69d2eb	0.9133746
26	0x3e922a92	0.28548104
27	0x3f91b78f	1.1384143
28	0x3e3f4b34	0.18681031
29	0x3fa3bede	1.2792623
30	0x3f850e13	1.039492
31	0x3ed5e4e5	0.41776195
32	0xbf9d7bee	-1.2303445
33	0x4036c8b3	2.8559997
34	0x3d715ae5	0.058924574
35	0x401bbe44	2.433488
36	0x3f8f9b1a	1.1219208
37	0x3fb1cc70	1.3890514
38	0x3f79d7db	0.97594994
39	0x3f8acaf3	1.0843185
40	0x3ee38772	0.44439274
41	0x3fb512c0	1.4146347
42	0xbe3c6a57	-0.1839994
43	0x3f7c4348	0.98540163
44	0x3fb5ae61	1.4193841
45	0x3eb78a2d	0.35847607
46	0x40814bb1	4.0404897
47	0x3f292f56	0.66087854
48	0xbf8e7a17	-1.1131009
49	0x3fa83cb0	1.314352
50	0x3ea56370	0.32302427
51	0xbf81d34f	-1.0142611
52	0x3f99e142	1.2021868
53	0x3f9874ec	1.1910682
54	0x40238c92	2.5554547
55	0x3fa5a494	1.294085
56	0x3fe0733a	1.7535164
57	0x3ec00448	0.37503266
58	0x400c09d6	2.1881003
59	0x3f17b57d	0.59261304
60	0xbf95b7af	-1.1696681
61	0xbebe29a4	-0.37141144
62	0x3e267fac	0.1625964
63	0xbf398da0	-0.7248173

bn1d.running_var f4 [64]
0	0x412a5696	10.646139
1	0x2c52181d	2.985618e-12
2	0x4026be4e	2.6053653
3	0x3fa59b1b	1.293796
4	0x4093c8b6	4.618251
5	0x3fc02283	1.5010532
6	0x3f8e3140	1.110878
7	0x417983a5	15.59464
8	0x40ba69a0	5.8253937
9	0x3fc2e8d2	1.5227301
10	0x410ad652	8.677324
11	0x40c960a7	6.2930484
12	0x3f90afd3	1.1303657
13	0x3fc0c6fc	1.5060725
14	0x3f8e2009	1.1103526
15	0x3fde01e7	1.734433
16	0x3fbe2473	1.4854873
17	0x411406ba	9.251642
18	0x40e58e55	7.1736245
19	0x414b37af	12.701095
20	0x409c8b2e	4.8919897
21	0x3fc5ae46	1.5443809
22	0x41555845	13.33405
23	0x40ae0524	5.4381275
24	0x40b0f6f2	5.5301447
25	0x411b44f4	9.704334
26	0x3fe5243f	1.7901686
27	0x3fb9c8ec	1.4514441
28	0x3f8e5172	1.1118605
29	0x4147f268	12.496681
30	0x41800fc5	16.0077
31	0x3fd13a48	1.6345911
32	0x40fafb94	7.84321
33	0x41039239	8.223199
34	0x3fb4c7cb	1.4123472
35	0x410bc476	8.735464
36	0x3fb5d81e	1.4206579
37	0x41991ac9	19.138079
38	0x411cdae1	9.803437
39	0x40ebd079	7.3691983
40	0x3fc1ba07	1.5134896
41	0x4114cc1e	9.299833
42	0x4130368b	11.013316
43	0x40f712a8	7.7210274
44	0x405af73c	3.42134
45	0x3ffd30cf	1.978052
46	0x412c5d1b	10.772731
47	0x401ecf6e	2.4814105
48	0x40f600f2	7.6876154
49	0x403c88ac	2.9458418
50	0x3f9e32da	1.2359269
51	0x3fdccc2e	1.7249811
52	0x40d722b9	6.7229886
53	0x40f185f0	7.5476
54	0x41136eb0	9.214523
55	0x404ec516	3.2307792
56	0x40a1c2cc	5.055029
57	0x3fa7a165	1.3096129
58	0x4125d3b5	10.364186
59	0x3fb09535	1.3795534
60	0x3ffde2d4	1.9834847
61	0x3fa6782a	1.3005421
62	0x4142caa3	12.174472
63	0x40fb36a3	7.8504195

line1.weight f4 [64, 200]
0	0x3c239307	0.0099837845
1	0x3a9b5aee	0.0011852661
2	0xbc70f86b	-0.014707665
3	0xbbbf1380	-0.005831182
4	0xbbaa846c	-0.005203774
5	0xbc7caa90	-0.015421525
6	0x3d8cd3da	0.06876345
7	0x3e0a48c8	0.13504326
8	0x3d825d70	0.06365478
9	0x3da3eea9	0.08004505
10	0x3c2ed33a	0.0106704775
11	0x3c649d69	0.013953545
12	0xbdc9aa7f	-0.09846973
13	0xbd85b2ae	-0.06528221
14	0xbd486d23	-0.048932206
15	0xbc34dcaf	-0.011038943
16	0x3d6218e8	0.055199534
17	0x3d108010	0.03527838
18	0x3b30bc05	0.0026967537
19	0x3d55061a	0.052007772
20	0xbc1bfafd	-0.0095202895
21	0xbb7fa1ce	-0.0039006355
22	0x3dd7ce55	0.105374016
23	0x3ddfb184	0.1092253
24	0x3dafe654	0.085888535
25	0x3c917a01	0.017758371
26	0x3a03f5e2	0.0005033893
27	0x3bdd76f2	0.006758564
28	0x3b94a8bd	0.0045367167
29	0x39b390f7	0.00034249548
30	0x3c3ceeb7	0.011531523
31	0x3baf6dda	0.0053536715
32	0xbbc71d2c	-0.0060764756
33	0x3ccf42dc	0.025300436
34	0x3daa8e19	0.08327884
35	0xbc9b017a	-0.018921603
36	0xbd4735c1	-0.048635248
37	0xbe1c39d5	-0.15256436
38	0xbdb72b56	-0.089438125
39	0xbd411dc2	-0.04714752
40	0xbb84f88b	-0.004057949
41	0x3b006ad6	0.001959493
42	0xbd2171aa	-0.03941504
43	0xbc59efba	-0.013301784
44	0xbd025ff4	-0.03182979
45	0xbbdb941a	-0.0067010047
46	0x3d431dc4	0.04763581
47	0x3db4b0bc	0.08822772
48	0x3da07d88	0.07836443
49	0x3b0f51c6	0.002186881
50	0x38991966	7.300339e-05
51	0xbb9c33c9	-0.0047669155
52	0x3c8d3da3	0.017241305
53	0xbcf07df6	-0.029356938
54	0x3b6940ed	0.0035591677
55	0xbc624710	-0.013810888
56	0x3b719227	0.0036860795
57	0x3b8855ae	0.0041606044
58	0x3b862339	0.0040935543
59	0xbd26c981	-0.040719513
60	0xbd2845a2	-0.041082032
61	0xbdaab566	-0.0833538
62	0x3c1c1b14	0.00952794
63	0x3cc22d3e	0.023703214
64	0x3c4ae67f	0.012384056
65	0x3c4a77e7	0.0123576885
66	0x3c4ae742	0.012384238
67	0x3c810a84	0.015752085
68	0x3d1f14bc	0.038838133
69	0x3cdc1464	0.026865192
70	0xbdad4133	-0.084597014
71	0xbdeed847	-0.116623454
72	0x3d3295ef	0.04360002
73	0x3de16023	0.11004665
74	0x3d89d318	0.06729716
75	0xbae22395	-0.0017253036
76	0xbd1f3554	-0.038869217
77	0x3cd5a98c	0.026081823
78	0xbb0cc57e	-0.002148002
79	0xbc85baf5	-0.0163245
80	0x3d8c6df5	0.0685691
81	0xbd91e263	-0.07123258
82	0xbdb1f95a	-0.08690138
83	0xbcd6376c	-0.026149474
84	0xbd2fb47f	-0.042896744
85	0x3d8f7bf0	0.07006061
86	0x3d11a81a	0.035560705
87	0x3cfee39e	0.031114396
88	0x3d2a9109	0.041642223
89	0x3aaa29e1	0.0012982452
90	0x3d918855	0.071060814
91	0xba0c5a1f	-0.0005354005
92	0x3d47fb5d	0.048823703
93	0xb99cd7f3	-0.00029915533
94	0x3d68cf00	0.056838036
95	0x3e1172d9	0.14203967
96	0x3a27bff4	0.00063991477
97	0xbe082ddd	-0.13298745
98	0xbdf4ecc9	-0.11959226
99	0xbd36ef58	-0.04466185
100	0x3c5d1101	0.013492824
101	0xbc5d6abc	-0.013514217
102	0x3bcb269c	0.006199671
103	0x3d1a5a05	0.037683506
104	0x3a19e1dd	0.0005870143
105	0x3c1c6143	0.009544673
106	0xbd6837cc	-0.056693837
107	0xbd0dc4aa	-0.03461138
108	0xbcace66a	-0.021105964
109	0xbcb42764	-0.02199144
110	0xbb3391a7	-0.0027400048
111	0x39765416	0.00023491713
112	0x3c074db3	0.008258271
113	0xbbbe8029	-0.0058136177
114	0xbd1babb3	-0.038005542
115	0xbb4757d5	-0.0030417342
116	0xbd01ba93	-0.03167207
117	0xbd065598	-0.032796472
118	0xbd1c3310	-0.038134634
119	0xbd38fb13	-0.045161318
120	0xbc2e5ee9	-0.0106427455
121	0x3d47629e	0.048678033
122	0x3d536f18	0.05161962
123	0x3dc2d99c	0.09514162
124	0x3e1c4bf4	0.15263349
125	0x3ca0f46a	0.019647796
126	0x3c98dd57	0.01866023
127	0xbb857c69	-0.0040736687
128	0xba8e3a19	-0.0010851055
129	0x3c50e179	0.012749069
130	0x3d13d886	0.036095165
131	0x3cb583fa	0.022157658
132	0x3dad9c26	0.084770486
133	0x3d45eb7a	0.04832027
134	0x3d849e3e	0.06475495
135	0x3b8e6e3e	0.004346638
136	0x3ca0eb42	0.01964343
137	0x3d25f400	0.0405159
138	0xbcf05476	-0.02933715
139	0xbd9fb5a0	-0.07798314
140	0x3c4890d8	0.012241565
141	0xbadda6ef	-0.0016910712
142	0xbb054c07	-0.0020339505
143	0xbdba04be	-0.09082936
144	0xbdc59fc4	-0.096496135
145	0xbcf8b2d7	-0.030358715
146	0x3df7e0c6	0.12103419
147	0x3d88197d	0.066454865
148	0x3cee9e76	0.029128294
149	0xbe4e03f7	-0.201187
150	0x3c1a7781	0.009427906
151	0xbc907fb6	-0.017639022
152	0x3d9bd24d	0.07608471
153	0x3dc464b4	0.0958952
154	0x3da24fd1	0.0792538
155	0x3b9a25b3	0.004704201
156	0xbb73e96c	-0.0037217988
157	0xbe09f5b8	-0.1347264
158	0xbe018f77	-0.12652384
159	0xbdd8086c	-0.10548481
160	0x3d5efd11	0.05444056
161	0x3d3b8a46	0.045786165
162	0xbc80d64a	-0.015727181
163	0x3c7d3da8	0.0154565945
164	0x3d2173f5	0.039417226
165	0xbd17d9a0	-0.037072778
166	0xbd989943	-0.07451107
167	0xbbbd423c	-0.005775718
168	0x3bc97c87	0.006148878
169	0x3cf4dc0d	0.029890085
170	0xbb4196e0	-0.0029539391
171	0x3d8cad1b	0.06868955
172	0x3ccece28	0.025244787
173	0xbc10e01f	-0.008842497
174	0x3c8fd19e	0.017556008
175	0x3ca3b547	0.0199839
176	0x3c8c7acb	0.017148396
177	0xbd347630	-0.044058025
178	0xbd333089	-0.04374746
179	0xbd3708bb	-0.04468606
180	0x3d13eef2	0.036116548
181	0x3dd30d87	0.103053145
182	0x3e0783f7	0.13233934
183	0x3d929a33	0.071583174
184	0x3d8e7b9c	0.0695717
185	0x3c072773	0.0082491515
186	0x3d362b21	0.044474725
187	0x3d8b9165	0.06814841
188	0xba3337c0	-0.00068366155
189	0xbbf2be7a	-0.0074079605
190	0x3900552d	0.00012238762
191	0x3ce5f624	0.02807147
192	0x3e01cd9e	0.12676093
193	0x3d8e30ab	0.069428764
194	0x3ce3e164	0.027817436
195	0x3bc3511f	0.005960598
196	0xbdcb53ad	-0.09928069
197	0x3dbc837d	0.09204767
198	0x3d376394	0.0447727
199	0xbd435a76	-0.047693692
200	0xaa0aa784	-1.2314981e-13
201	0x23f53b8f	2.6588177e-17
202	0x99a02538	-1.6558645e-23
203	0x9a8b41ca	-5.759534e-23
204	0x1a155f07	3.088924e-23
205	0xa2d31c7d	-5.7221828e-18
206	0xbbc8c13b	-0.0061265505
207	0xbb92116d	-0.0044576437
208	0xbbe7aed8	-0.0070704035
209	0xba72253d	-0.00092371163
210	0x2286918f	3.647489e-18
211	0x38d18133	9.989962e-05
212	0xba8c2d0a	-0.0010694575
213	0x3b4719f5	0.0030380462
214	0xbb4bb83e	-0.0031085159
215	0xb582fb7e	-9.758949e-07
216	0xba08114e	-0.0005190567
217	0xb9ab35b1	-0.00032655665
218	0xbad6ee54	-0.0016397932
219	0x3a412db2	0.0007369175
220	0xae6b2879	-5.346876e-11
221	0x3ac7c5b8	0.001524142
222	0x3b84ff96	0.0040587885
223	0xbb03d662	-0.0020116796
224	0xba778136	-0.0009441556
225	0x9fce8ddb	-8.7479074e-20
226	0x1b953db6	2.4689862e-22
227	0x9a8e981a	-5.8975557e-23
228	0x1b96f8be	2.4976164e-22
229	0x19458f39	1.0213585e-23
230	0x2ca2564c	4.613898e-12
231	0xba843c98	-0.0010088859
232	0x3ae7fa1a	0.0017698437
233	0xbadfc35b	-0.001707177
234	0x3adaaba9	0.0016683239
235	0x30d5ddb8	1.5560806e-09
236	0x39310c8c	0.0001688471
237	0x3ae3df80	0.0017385334
238	0xbb37274b	-0.0027947004
239	0xba992157	-0.001168291
240	0xa2b84686	-4.994797e-18
241	0x39a91350	0.0003224858
242	0xbadaff9d	-0.0016708259
243	0xbaccca41	-0.0015624241
244	0x3bb37e60	0.0054777116
245	0xb7e8daeb	-2.7758497e-05
246	0x3bad73ac	0.00529333
247	0x3c02bdd4	0.007979829
248	0xbb8b5123	-0.0042516156
249	0xba529d1d	-0.0008034276
250	0x188d3b17	3.650731e-24
251	0x9ce39b3a	-1.5061725e-21
252	0x1ad29df7	8.710917e-23
253	0x2a4cc0bb	1.8185707e-13
254	0x98cc8008	-5.2862043e-24
255	0xb68f628e	-4.2732054e-06

line1.bias f4 [64]
0	0x3c4e327b	0.012585278
1	0xb4d38373	-3.9397455e-07
2	0xb9c37bcc	-0.00037285534
3	0xb7ecfaf6	-2.8250255e-05
4	0x3a8eb104	0.0010886495
5	0x3b671407	0.003525974
6	0x3a2a798b	0.00065030967
7	0x3b25a8ed	0.002527769
8	0xbb413406	-0.0029480471
9	0xb865aefe	-5.476083e-05
10	0xbb3431f7	-0.0027495602
11	0xbb83df9a	-0.004024458
12	0xb6172d7a	-2.2527224e-06
13	0xb8787e10	-5.9245212e-05
14	0xb7fb7c92	-2.997954e-05
15	0x3b51d965	0.0032020446
16	0xb74bc958	-1.2146622e-05
17	0xbbf15ef2	-0.0073660547
18	0x3b0baf78	0.0021314304
19	0x3b4a1de8	0.003084058
20	0xbb7e8171	-0.0038834477
21	0x3ade2a45	0.0016949853
22	0x3c23092d	0.009950918
23	0xbbcae580	-0.0061919093
24	0xbb77e516	-0.0037825755
25	0x3aeff46e	0.0018307099
26	0x3ba19d52	0.004932084
27	0xb88818a8	-6.489578e-05
28	0xb792e05e	-1.7509035e-05
29	0x3b4b6b16	0.003103917
30	0x3b5e36f8	0.0033907276
31	0x3b48bec0	0.0030631274
32	0x3c310126	0.010803496
33	0x3a3b30d6	0.0007140761
34	0xb8877f34	-6.460995e-05
35	0xbacd98fe	-0.0015685854
36	0xb770cf80	-1.4353427e-05
37	0x3bf7f508	0.007567052
38	0xbc72c883	-0.0148183135
39	0x3b700f8e	0.0036630365
40	0xb8590965	-5.174558e-05
41	0x3b49959d	0.0030759342
42	0x3c1f6d9a	0.009730721
43	0x3b07e920	0.0020738319
44	0xba6d6b4b	-0.00090568204
45	0x3b7e5cef	0.0038812717
46	0x3abe582f	0.001452213
47	0xb9ce9887	-0.00039405024
48	0x3ac91cdd	0.0015343685
49	0xba6c7867	-0.0009020627
50	0xb8393aaa	-4.4162072e-05
51	0xb9d700b7	-0.00041008528
52	0x3aa93745	0.0012910148
53	0x3a8dda90	0.0010822583
54	0xba514718	-0.0007983311
55	0xb8cf23c8	-9.877194e-05
56	0xbb3890be	-0.0028162445
57	0xb8a67b07	-7.9384125e-05
58	0xbac387ce	-0.0014917792
59	0xb73dac2c	-1.1305365e-05
60	0x3b169cf9	0.0022981747
61	0xb7d64fb5	-2.5547904e-05
62	0x3b5201b9	0.0032044484
63	0x3a20a4d4	0.0006128077

line2.weight f4 [3, 64]
0	0xbe494163	-0.1965385
1	0x3c98d027	0.018653942
2	0x3e07a8a5	0.13247927
3	0xbc1cdde0	-0.0095743835
4	0xbe0c7c64	-0.13719326
5	0xbde73f43	-0.11291363
6	0xbd6b0e46	-0.05738666
7	0xbeabb764	-0.33538353
8	0x3e603e73	0.21898822
9	0xbc75cb18	-0.015002035
10	0x3ebe08fe	0.37116235
11	0x3e6dd207	0.2322465
12	0xbb400135	-0.0029297594
13	0xbc2ec7b9	-0.010667735
14	0xbc183af5	-0.0092914
15	0xbde7c859	-0.1131751
16	0xbd03800e	-0.032104544
17	0x3eaeef5b	0.3416699
18	0x3e9468b1	0.28986123
19	0xbe89eed5	-0.26940027
20	0x3e4eaa9b	0.20182268
21	0xbdabc95d	-0.083880164
22	0xbe22dac7	-0.1590377
23	0x3e994b30	0.29940176
24	0x3e9586b4	0.29204333
25	0xbe8946cc	-0.26811826
26	0xbdff87db	-0.12477084
27	0x3c2ea62a	0.010659734
28	0xbbdef2a3	-0.006803827
29	0xbe88b2ba	-0.26698858
30	0xbeb04b53	-0.34432468
31	0xbdda9c5e	-0.10674356
32	0xbece2d0b	-0.4026874
33	0x3e294e7d	0.16533847
34	0xbc9c651f	-0.019091187
35	0x3e9faeb2	0.3118797
36	0x3bcc17f2	0.0062284404
37	0x3f1c2e3b	0.6100804
38	0x3ee3acf8	0.44467902
39	0xbeb1d64a	-0.34733802
40	0xbc336493	-0.010949272
41	0x3ec905c9	0.39262226
42	0xbdd9ed5d	-0.106409766
43	0xbe1a4b67	-0.15067826
44	0x3dc6ae45	0.09701208
45	0xbdfe3887	-0.124131255
46	0x3e0a84b3	0.13527183
47	0x3d41643c	0.04721473
48	0x3ec43dc8	0.38328385
49	0x3dbc37ce	0.091903314
50	0xbc5cc983	-0.0134757785
51	0x3d1a5cbb	0.03768609
52	0x3e968561	0.29398635
53	0xbce7d60b	-0.028300306
54	0x3e8694cb	0.26285395
55	0x3dc151ab	0.09439405
56	0x3e68d657	0.22738014
57	0xbc243859	-0.0100232
58	0x3ea4a7b3	0.32159194
59	0xbc179ce4	-0.009253714
60	0xbdb72c88	-0.089440405
61	0xbc24880f	-0.0100422045
62	0xbeb9577c	-0.36199558
63	0xbdc47a03	-0.095935844
64	0xbef514a9	-0.47867325
65	0xbc849c0b	-0.016187688
66	0xbd1f108d	-0.038834143
67	0x3c6ba246	0.014381951
68	0x3e771873	0.2413042
69	0xbd56168d	-0.0522676
70	0xbcba2736	-0.022723775
71	0x3ed9b9d0	0.42524576
72	0xbe063d9b	-0.13109438
73	0x3cb94cdb	0.022619655
74	0xbe94f7bd	-0.2909526
75	0xbd5f2d38	-0.054486483
76	0x3c1b3c1e	0.009474782
77	0x3c81c534	0.015841104
78	0x3c8563d3	0.016282951
79	0xbd209c6b	-0.03921167
80	0x3d22fe0f	0.03979307
81	0xbd0a3594	-0.033742502
82	0xbe0b597a	-0.13608351
83	0x3ec9a533	0.3938385
84	0x3c98ed33	0.018667793
85	0xbd0255b1	-0.031820003
86	0xbf093deb	-0.53610104
87	0xbc0c0242	-0.00854546
88	0xbd6e3b07	-0.05816176
89	0x3e9cd9b7	0.30634853
90	0xbda627c6	-0.08113055
91	0xba37b970	-0.00070085283
92	0x3c49afe2	0.01231
93	0x3ecb19b0	0.39668036
94	0x3ee2f6aa	0.44328815
95	0xbd2fd47e	-0.042927258
96	0xbd55ca72	-0.05219502
97	0xbe7e9934	-0.2486313
98	0x3d0be6eb	0.034155767
99	0xbe1618f5	-0.14657958
100	0xba20b9dc	-0.0006131211
101	0xbe866b76	-0.2625386
102	0xbdd527f2	-0.104080096
103	0x3e5c5a81	0.215189
104	0x3c8a6187	0.016892208
105	0xbe275cdd	-0.16344018
106	0xbf02bd2f	-0.5106992
107	0x3eada5f8	0.33915687
108	0xbd8b17ec	-0.06791672
109	0xbd5eb156	-0.05436834
110	0xbecb71c6	-0.3973524
111	0xbc0a80ed	-0.00845359
112	0xbe05509f	-0.13019036
113	0xbd131f4c	-0.03591852
114	0x3cefb7ab	0.029262384
115	0xbc22c7ad	-0.009935302
116	0xbdf6b01a	-0.120453075
117	0x3ea6b3ed	0.32559147
118	0xbe9479f4	-0.28999293
119	0xbd03281c	-0.032020673
120	0xbca9bd85	-0.020720253
121	0x3c748081	0.014923216
122	0xbe98cf42	-0.29845625
123	0x3c8b0b17	0.016973061
124	0xbd088a48	-0.033335
125	0x3c610033	0.013732958
126	0x3ebfe788	0.37481332
127	0x3ea624d9	0.32449988
128	0x3ed93b11	0.42427877
129	0x3c2f8b7b	0.010714407
130	0xbdc93146	-0.09823851
131	0xbb4d893d	-0.0031362318
132	0xbe147a45	-0.14499767
133	0x3e23041b	0.15919535
134	0x3d9f9050	0.07791197
135	0xbe453ebb	-0.19262211
136	0xbdab4026	-0.08361845
137	0xbbea937f	-0.007158696
138	0xbe34d744	-0.17660242
139	0xbe811370	-0.25210142
140	0xbb0bba48	-0.002132075
141	0xbb85c22f	-0.0040819864
142	0xbba6af3e	-0.0050868085
143	0x3e1d5656	0.15364966
144	0xbc567bf4	-0.013091076
145	0xbecf045a	-0.40433007
146	0xbe713664	-0.23555905
147	0xbe02b3cd	-0.12763901
148	0xbeb3c3f5	-0.3511044
149	0x3e001a20	0.12509966
150	0x3ed78dae	0.4210028
151	0xbebd8b1d	-0.37020198
152	0xbe8cfd12	-0.27536827
153	0xbe0cfab0	-0.13767505
154	0x3e4f2929	0.20230545
155	0xbb1d34d4	-0.0023987787
156	0xbb8de751	-0.0043305536
157	0xbe835ff1	-0.25659135
158	0xbe4b3a39	-0.19846429
159	0x3e1a6f79	0.15081586
160	0x3ea4cb07	0.32186148
161	0x3d8fbc51	0.070183404
162	0xbc59da5d	-0.013296691
163	0xbe8c830d	-0.27443734
164	0xbaeca983	-0.001805589
165	0xbef0a2cf	-0.46999213
166	0xbf0fd3c6	-0.56182516
167	0x3d9ce2b9	0.076604314
168	0xbb65b859	-0.0035052507
169	0xbe95e96b	-0.29279646
170	0x3ee2d72d	0.4430479
171	0xbe9b059e	-0.30277723
172	0xbc1fc44d	-0.009751392
173	0x3e32ec03	0.17472844
174	0x3e0f3c01	0.13987733
175	0xbd021aeb	-0.031763952
176	0xbebfbfb7	-0.37450954
177	0xbd7ee8c4	-0.0622337
178	0xbc3a1527	-0.011357582
179	0xbca9e7cf	-0.020740418
180	0xbe732b50	-0.23746991
181	0xbeb1e62f	-0.3474593
182	0xbc3c6ac8	-0.011500068
183	0xbd0ae18a	-0.033906497
184	0xbe81961e	-0.25309843
185	0xbb6a5d94	-0.0035761343
186	0xbe0895c3	-0.1333838
187	0xbbc377de	-0.005965217
188	0x3e014afa	0.12626258
189	0xbb26f6cc	-0.0025476692
190	0xbdd5855c	-0.10425827
191	0xbe9ab61e	-0.3021707

line2.bias f4 [3]
0	0x3ca0fb70	0.019651145
1	0xbdb5c689	-0.08875758
2	0xbc686743	-0.014184776

conv_layer5x5.weight f4 [8, 3, 5, 5]
0	0x3d270798	0.040778726
1	0x3dd5df3f	0.104429714
2	0x3d30ceb1	0.043165866
3	0x3dd402ce	0.103520975
4	0x3df81b95	0.12114636
5	0x3ddc1d23	0.10747745
6	0x3de275f6	0.110576555
7	0x3d3cf6f0	0.046133935
8	0x3d062873	0.03275342
9	0x3dd5136e	0.104040965
10	0x3d6d4fd7	0.05793747
11	0x3d84df65	0.064879216
12	0x3d7d265a	0.061804153
13	0xbb9143af	-0.0044331173
14	0x3da0dbbf	0.07854413
15	0x3db88aa7	0.09010821
16	0x3d9a47c5	0.0753322
17	0x3d63b634	0.055593684
18	0x3d1ef714	0.03880985
19	0xbc3801f4	-0.011230934
20	0xba1e5e9e	-0.0006041321
21	0x3dc0a649	0.094067164
22	0x3c7f1fda	0.015571559
23	0x3d59cd7a	0.053174473
24	0x3d5d91c7	0.054094102
25	0x3cf7e4eb	0.030260524
26	0x3d54e130	0.051972568
27	0x3adbcba4	0.0016769064
28	0x3dc9bac5	0.098500766
29	0x3d9284a7	0.07154208
30	0x3d7dca1c	0.061960325
31	0x3d379f18	0.044829458
32	0x3dd53328	0.10410148
33	0x3b0ae8ce	0.0021195891
34	0x3d76ada6	0.060224198
35	0x3bbf46c9	0.0058372957
36	0x3d9f5844	0.07780507
37	0x3cf00b7c	0.029302351
38	0x39a929ff	0.0003226548
39	0x3cdc8355	0.026918093
40	0xbd75982c	-0.059959576
41	0xbd116137	-0.035493102
42	0xbcf10e97	-0.029425902
43	0x3d813b80	0.06310177
44	0xbd1b750f	-0.037953433
45	0x3d4c9a24	0.049951687
46	0xbd43e886	-0.047829174
47	0xbd163516	-0.03667172
48	0x3bbc9041	0.005754501
49	0x3c41b3a7	0.011822618
50	0x3d450f1a	0.048110105
51	0x3db1d4c2	0.086831585
52	0x3cc3409d	0.023834521
53	0x3d51a429	0.051181946
54	0x37a18360	1.9253872e-05
55	0x3d37f328	0.044909626
56	0x3e1f4432	0.15553358
57	0x3e24054b	0.16017644
58	0x3d1da41d	0.03848659
59	0x3dc500c4	0.09619287
60	0x3db3c2ae	0.087773666
61	0x3bb100f0	0.005401723
62	0x3db6bb11	0.08922399
63	0x3c2577f0	0.010099396
64	0x3c3db986	0.011579877
65	0xbc8ddc20	-0.017316878
66	0xbbe7d448	-0.0070748664
67	0xbd42d38b	-0.047565024
68	0xbc695b9a	-0.014243031
69	0x3ba672fc	0.005079625
70	0x3d9800d4	0.07422033
71	0x3be93590	0.007116981
72	0x3dc50b53	0.096213005
73	0xbc7ec176	-0.015549054
74	0x3d6f34d5	0.058399994
75	0x3c5bb54a	0.013409922
76	0x3d8ae200	0.06781387
77	0xbd85c9a1	-0.06532598
78	0x3d19c252	0.037538834
79	0xbdd38cf3	-0.10329618
80	0xbc62802c	-0.013824504
81	0xbdbe029d	-0.09277842
82	0x3cf67871	0.030086728
83	0xbdb9fee3	-0.09081819
84	0xbd71d95a	-0.059045173
85	0x3daee406	0.08539586
86	0xba8fabb2	-0.0010961203
87	0xbce27a04	-0.027646072
88	0x3d044f12	0.03230197
89	0xbd880dd8	-0.066432655
90	0xbb82bc22	-0.0039897123
91	0x3d81e23f	0.06341981
92	0x3b5ddb44	0.0033852616
93	0x3d932a43	0.07185795
94	0xbd9844c9	-0.07434995
95	0x3da4e044	0.08050588
96	0x3d9bd204	0.07608417
97	0x3df6de06	0.12054066
98	0xbd5caf18	-0.05387792
99	0x3c8811f1	0.016610118
100	0x3cc7dbae	0.024396744
101	0x3c7fe89d	0.015619424
102	0xbde02fd0	-0.109466195
103	0xbbb3bdd5	-0.005485276
104	0xbd7ecba4	-0.062205926
105	0xbc3a5f3a	-0.011375243
106	0xbe0696d9	-0.13143481
107	0xbdbf06fc	-0.09327504
108	0xbc9e9833	-0.019359684
109	0xbd87bf79	-0.066283174
110	0x3d8a070c	0.06739625
111	0xbd97239e	-0.0737984
112	0x3bcff9bc	0.0063469093
113	0xbcfb9c1f	-0.030714093
114	0xbcbbc388	-0.022920385
115	0x3db31d6a	0.08745845
116	0x3d934b0d	0.07192049
117	0x3dabd49f	0.08390164
118	0x3d214b46	0.039378427
119	0x3d99a776	0.07502644
120	0x3d8e13e3	0.06937387
121	0x3c9fa65d	0.019488508
122	0xbd999d9c	-0.07500765
123	0xbd8f0ea8	-0.06985217
124	0xbd742bcf	-0.05961209
125	0x3c0c911f	0.008579521
126	0xbd88b0a2	-0.06674315
127	0x3d624439	0.055240843
128	0xbdacb062	-0.0843208
129	0xbdc30173	-0.09521761
130	0xbd67d443	-0.056598913
131	0x3caafe46	0.0208732
132	0xbe0011d1	-0.12506796
133	0xbd5e50fb	-0.054276448
134	0xbe079f79	-0.13244428
135	0x3d9acf00	0.07559013
136	0x3dc2a052	0.09503235
137	0xbc916152	-0.017746601
138	0xbd10c9a4	-0.03534855
139	0xbda44e9d	-0.08022807
140	0x3d2618b9	0.04055092
141	0xbb3764e4	-0.002798372
142	0x3c60839e	0.013703255
143	0x3df4fc82	0.119622245
144	0xbd3dc72d	-0.046332527
145	0x3cabddd8	0.020979807
146	0x3dc39516	0.0954992
147	0x3b64d210	0.0034915246
148	0xbd6b441a	-0.057437994
149	0x3d3bfb68	0.045894057
150	0xbd4c5736	-0.04988786
151	0xbd2d752d	-0.042348076
152	0xbd4ffa79	-0.05077598
153	0xbd180dfe	-0.03712272
154	0xbd0f473f	-0.034980055
155	0xbd1c7bdc	-0.03820406
156	0xbd26a4ec	-0.040684626
157	0xbd3b9339	-0.0457947
158	0xbd1aac97	-0.03776225
159	0xbd5c3c7b	-0.053768616
160	0x3d57d652	0.052694626
161	0x3d9a24ae	0.07526527
162	0x3d66d746	0.056357644
163	0xbbd08d01	-0.006364465
164	0x3cf0f714	0.029414691
165	0x3d648884	0.055794254
166	0x3d001991	0.031274382
167	0x3d972d5f	0.07381701
168	0x3c69e0b6	0.014274767
169	0x3d7e241f	0.062046167
170	0x3d13ede7	0.036115553
171	0x3da0ce8b	0.07851895
172	0x3d790fea	0.060806192
173	0xbb806f15	-0.003919492
174	0x3cefe985	0.029286155
175	0xbc7060c1	-0.014671505
176	0xbc79527f	-0.0152174225
177	0xbc8450fa	-0.016151894
178	0xbc8eec78	-0.017446741
179	0xbc9ab760	-0.018886268
180	0xbc8dab82	-0.017293695
181	0xbc831e40	-0.016005635
182	0xbc6f63d5	-0.014611204
183	0xbc749e45	-0.0149303125
184	0xbc810039	-0.015747176
185	0xbca5cac5	-0.02023829
186	0xbd2d408e	-0.042297892
187	0xbcc46d2e	-0.023977842
188	0x3c8d4316	0.017243903
189	0xbcde6e99	-0.027152346
190	0xbd0ae0c5	-0.033905763
191	0x3d210916	0.039315306
192	0xbd1dd6cd	-0.038534928
193	0x3d0ca92f	0.034341034
194	0xbbf61a57	-0.007510464
195	0xbd236ab1	-0.03989667
196	0xbd3760f8	-0.04477021
197	0x3cf1e98e	0.029530313
198	0xbd2c22a0	-0.04202521
199	0x3c351c76	0.011054149
200	0xbda199d8	-0.078906715
201	0xbd8a3b02	-0.06749536
202	0xbd968028	-0.073486626
203	0xbd615000	-0.055007935
204	0xbd9619cd	-0.0732914
205	0xbd9d4391	-0.07678903
206	0xbda3e6d0	-0.08003008
207	0xbd919b3c	-0.07109687
208	0xbd6d9ccf	-0.058010872
209	0xbd872654	-0.065991074
210	0x3d426289	0.04745725
211	0x3d32c48a	0.043644466
212	0x3d14ac45	0.0362971
213	0x3d8f90f0	0.070100665
214	0x3aeb988e	0.0017974542
215	0xbd1074f5	-0.03526779
216	0xbd29386e	-0.04131358
217	0x3ce72b11	0.028218778
218	0x3d92bc76	0.07164852
219	0x3d98f0b7	0.07467788
220	0x3c90990d	0.017651105
221	0x3d670126	0.05639758
222	0xbd564b46	-0.05231788
223	0x3da1c83c	0.0789952
224	0x3cfd9e23	0.030959195
225	0xbdfa1e6d	-0.122128345
226	0x3ce188c2	0.027531032
227	0xbda95537	-0.082682066
228	0x3d54fe4a	0.05200032
229	0x3d0c4dd9	0.03425393
230	0xbcbfc833	-0.023410892
231	0xbdd0d5b5	-0.101970114
232	0x3d4f0658	0.05054316
233	0x3d4dbfe8	0.050231844
234	0x3b7c9268	0.0038539413
235	0xbd8f0356	-0.06983058
236	0x3b554b91	0.0032546262
237	0xbc28e1e2	-0.010307761
238	0xbd9e083e	-0.07716416
239	0xbdb9b4d6	-0.09067695
240	0xbd99e75e	-0.07514833
241	0xbda723ce	-0.08161126
242	0xbd3c4f2a	-0.045973934
243	0x3bea9011	0.0071582873
244	0x3d9a0300	0.075201035
245	0xbd1a8e7d	-0.037733544
246	0xbcc133f8	-0.023584351
247	0xbdd66127	-0.10467749
248	0xbda07335	-0.07834474
249	0xbb5342d7	-0.0032235885
250	0xbdb195a2	-0.08671118
251	0x3deac9e3	0.11464288
252	0x3e3202da	0.173839
253	0x3e1cf4ff	0.15327834
254	0x3e261d72	0.1622217
255	0x3d1d5779	0.0384135

conv_layer5x5.bias f4 [8]
0	0x3c9dc48e	0.019258764
1	0x3da3fd07	0.080072455
2	0xbb8311ce	-0.003999925
3	0xbdca37dd	-0.09873936
4	0xbba49015	-0.0050220587
5	0xbdda4c8d	-0.10659132
6	0xbbb2dc0f	-0.005458362
7	0xbbe7909f	-0.0070668007

conv_layer3x3_1.weight f4 [12, 12, 3, 3]
0	0x3def6c9b	0.11690637
1	0xbba6ee9c	-0.0050943624
2	0x3cca6421	0.024705948
3	0x3d7e3765	0.062064547
4	0x3c68134e	0.014164759
5	0x3d23c1d7	0.039979782
6	0x3dcc5e72	0.099789515
7	0xbc236e0b	-0.009974967
8	0xbdab6efa	-0.083707765
9	0x3d981962	0.074267164
10	0x3d31e005	0.043426532
11	0xbdb434f4	-0.087991625
12	0x3ddc9aec	0.107717365
13	0xbc9fed10	-0.01952222
14	0xbce9ae98	-0.028525636
15	0x3e3f42fc	0.18677896
16	0x3d996d0d	0.07491503
17	0xbdfe3b93	-0.12413707
18	0xbd950248	-0.07275826
19	0x3b579989	0.003289791
20	0xbdb0c115	-0.086305775
21	0x3d512bd9	0.051067207
22	0xbc0e1f4e	-0.008674456
23	0xbc184766	-0.009294366
24	0x3ce7e6a8	0.028308228
25	0x3c82eaae	0.015981045
26	0xbd3e219b	-0.046418767
27	0x3dfb32bb	0.122655354
28	0x3cdf134b	0.02723088
29	0x3df72e77	0.12069409
30	0xbd7bd29d	-0.061480153
31	0xbbb2bffc	-0.005455015
32	0x3d64d40a	0.05586628
33	0x3d4000b9	0.04687569
34	0xbc4c7725	-0.012479578
35	0x3d2cdff7	0.042205777
36	0x3d8be5e6	0.06830959
37	0xbc9be3ba	-0.019029487
38	0xbd4a0ba2	-0.0493275
39	0x3df1a3d5	0.117988266
40	0xbd5059b2	-0.05086679
41	0xbd1cd1ff	-0.038286205
42	0x3e6bf60d	0.2304308
43	0x3d90eb4a	0.07076128
44	0x3d54ceba	0.051954962
45	0xbbb82920	-0.005620137
46	0x3c3b42db	0.011429514
47	0x3cbf291b	0.02333503
48	0x3d32893d	0.043587912
49	0x3d4858b7	0.04891273
50	0x3c95356e	0.018213954
51	0x3bb40707	0.005494002
52	0x3c4460aa	0.011985937
53	0xbcc547ef	-0.024082152
54	0xbdd66e19	-0.10470218
55	0xbd70a1d1	-0.05874807
56	0xbc8d3fde	-0.017242368
57	0xbd09be19	-0.033628557
58	0xbd873866	-0.06602554
59	0x3ca1b975	0.019741753
60	0x3d2b86c1	0.04187656
61	0x3d25d99a	0.040490724
62	0xbdaa75d0	-0.08323252
63	0x3c81d74a	0.015849728
64	0x3c6f7860	0.014616102
65	0x3d0590fb	0.032608967
66	0x3d9cfe97	0.07665747
67	0x3d782961	0.060586337
68	0x3ddc1dd2	0.10747875
69	0x3de5adcf	0.11214792
70	0x3d632edb	0.055464607
71	0x3de36002	0.111022964
72	0x3d864e49	0.065579005
73	0x3da6db3f	0.081472866
74	0xbd15c8a8	-0.036568314
75	0xb9c90c61	-0.0003834693
76	0x3d0990b9	0.033585284
77	0x3d45c5e5	0.04828443
78	0x3d4be120	0.049775243
79	0x3d7c25c1	0.061559442
80	0xbc825041	-0.015907409
81	0xbdbbda23	-0.09172466
82	0xbd9b4d6a	-0.07583125
83	0xbd884c72	-0.06655206
84	0xbdca5894	-0.09880176
85	0xbd713aa2	-0.058893807
86	0xbdf2b43a	-0.11850782
87	0x3cc6ff0a	0.024291534
88	0x3ceda0b8	0.0290073
89	0x3dd7e34c	0.105414
90	0x3d94312f	0.072359435
91	0xbd987e75	-0.07445995
92	0x3d541a29	0.05178276
93	0xbe01605f	-0.12634419
94	0xbe20172f	-0.15633844
95	0xbe1c5668	-0.15267336
96	0xbc1b95e8	-0.00949619
97	0xbd9443e0	-0.07239509
98	0xbdd63eb2	-0.10461177
99	0xbd8a061f	-0.06739449
100	0xbc4a4856	-0.012346348
101	0xbc813b28	-0.015775278
102	0xbbb7b596	-0.0056063635
103	0x3c1a438d	0.009415519
104	0x3ceccd52	0.028906498
105	0x3d7933f8	0.060840577
106	0x3d3843ea	0.044986643
107	0x3d249869	0.040184412
108	0xbe162401	-0.14662172
109	0xbd625533	-0.055257034
110	0x3c135ccd	0.008994293
111	0x3e091506	0.13386926
112	0x3d648555	0.055791218
113	0x3d47e561	0.048802737
114	0xbd8b3730	-0.067976356
115	0xbe054856	-0.13015875
116	0xbe500bd6	-0.20317015
117	0x3e30562b	0.1722037
118	0x3e3432d8	0.1759752
119	0x3dfe5f3d	0.12420509
120	0x3daaf0db	0.08346721
121	0xbd32c69a	-0.043646432
122	0xbcf32f61	-0.029685678
123	0x3cfbd314	0.030740298
124	0xbdee909e	-0.11648677
125	0xbdca8c0f	-0.09889995
126	0xbd8665e6	-0.06562404
127	0x3b872585	0.0041243457
128	0x3b826612	0.003979453
129	0xbe160d47	-0.14653502
130	0xbd972543	-0.07380154
131	0xbd84863d	-0.064709164
132	0x3ca6b568	0.020350173
133	0x3d7151e8	0.058916003
134	0xbcd3e1fd	-0.025864596
135	0x3d045fb1	0.03231782
136	0xbd86ee63	-0.065884374
137	0xbd5416b3	-0.05177946
138	0xbe0db82f	-0.13839792
139	0xbd2ad6c1	-0.04170871
140	0xbd730cab	-0.059338253
141	0xbd45b196	-0.048265062
142	0x3d445077	0.0479283
143	0x3d5c06e7	0.05371752
144	0x3dcd8f29	0.10037071
145	0x3c0d8e4c	0.008639883
146	0xbc88edb0	-0.0167149
147	0xbe3929bb	-0.18082325
148	0xbe35a637	-0.17739187
149	0xbcfd0e27	-0.030890537
150	0xbda7918c	-0.08182058
151	0xbd8c5cdd	-0.0685365
152	0xbe36b12a	-0.1784102
153	0x3d610dac	0.05494468
154	0x3d17a699	0.037024114
155	0x3dc2a03f	0.09503221
156	0xbd366cb0	-0.044537246
157	0x3923c2e9	0.00015617501
158	0xbbdaf7d8	-0.0066823773
159	0x3dcd72ec	0.10031685
160	0x3dd06092	0.10174669
161	0x3c8d2785	0.017230758
162	0x3e1f4a51	0.15555693
163	0xbbde020a	-0.0067751454
164	0xbdedcce2	-0.11611344
165	0x3e72d24a	0.23713031
166	0x3dea5bfa	0.114433244
167	0x3dc19bd6	0.094535515
168	0xbe31a152	-0.17346695
169	0xbe042685	-0.12905319
170	0xbe4f54e2	-0.20247224
171	0x3dad7c80	0.08471012
172	0xbce43ebd	-0.027861947
173	0xbcdc08d3	-0.026859676
174	0x3d2988a5	0.04139008
175	0x3e5cad5e	0.2155051
176	0x3de36dac	0.111049026
177	0xbe30c1be	-0.17261407
178	0xbd94f6d3	-0.072736405
179	0xbe05bf09	-0.13061155
180	0x3d79b14a	0.06096009
181	0x3c1940e9	0.009353855
182	0x3d992224	0.07477215
183	0x3d36863b	0.044561606
184	0x3ca599ec	0.020214997
185	0x3dd242b0	0.10266626
186	0x3ca032f6	0.01955555
187	0xbdabf597	-0.08396452
188	0xbd7561b0	-0.059907615
189	0x3dbfcabb	0.0936484
190	0x3d1101a5	0.03540196
191	0xbd3268fb	-0.04355715
192	0x3de5feb7	0.112302236
193	0x3e64d84e	0.22348139
194	0x3dc95a49	0.09831674
195	0xbe2c0fd3	-0.16802911
196	0xbdd04b39	-0.101705976
197	0xbe2fdd73	-0.1717432
198	0x3c478146	0.012176817
199	0xbce37727	-0.027766777
200	0xbd27ca6b	-0.040964525
201	0x3a4b6ccb	0.0007760047
202	0x3b8098d8	0.0039244704
203	0x3e2a3377	0.16621195
204	0xbcc756d1	-0.02433339
205	0x3bc18851	0.0059061428
206	0xbd856aec	-0.06514534
207	0xbd9d1feb	-0.076721035
208	0xbce33bc5	-0.027738461
209	0xbdb86d43	-0.09005215
210	0x3d85a093	0.06524768
211	0x3d3685b0	0.044561088
212	0xbc728853	-0.01480301
213	0xbc263be6	-0.010146117
214	0xbdc6be98	-0.097043216
215	0xbe0878de	-0.13327357
216	0x3db9bc27	0.0906909
217	0x3e0ec003	0.13940434
218	0xbd121adb	-0.035670143
219	0x3c140edc	0.009036746
220	0x3dcd1b3d	0.10014961
221	0x3d544a8d	0.05182891
222	0x3ce89775	0.028392533
223	0x3d2f5fd2	0.04281599
224	0x3a6ae327	0.000896024
225	0xbd7ada89	-0.061243568
226	0xbe06a99d	-0.1315064
227	0x3b82ae74	0.0039880816
228	0xbe2a475b	-0.16628782
229	0xbdb49eec	-0.088193744
230	0x3c93553c	0.017984979
231	0xbd995da5	-0.074885644
232	0xbbd8d104	-0.0066167135
233	0x3cd1e7bf	0.0256232
234	0x3d1aa234	0.037752345
235	0x3df6db50	0.12053549
236	0xbcbc9b18	-0.023023173
237	0xbc3c597a	-0.011495942
238	0x3a6e2613	0.0009084653
239	0xbc4dd0c8	-0.012561984
240	0x3d08a54e	0.03336077
241	0x3be0e988	0.0068637766
242	0x3da0f9ef	0.07860171
243	0x3b961754	0.0045804176
244	0x3d318ff0	0.04335016
245	0x3c8b5331	0.017007442
246	0xbd79c5ad	-0.060979534
247	0xbd90eae5	-0.070760526
248	0x3d51cc0d	0.05121999
249	0xbb564bd8	-0.0032699015
250	0xbcdf01d2	-0.027222548
251	0xbcc74758	-0.024326012
252	0x3d928810	0.07154858
253	0x3df80e2b	0.12112077
254	0xbc1856d0	-0.009298041
255	0xbd1fdad5	-0.039027054

conv_layer3x3_1.bias f4 [12]
0	0x3d90dcfe	0.07073401
1	0x3df8a679	0.12141127
2	0x3c8202f5	0.01587055
3	0x3e08a1aa	0.1334292
4	0x3dc86727	0.097853
5	0xbd18e8a7	-0.03733125
6	0x3d965a0d	0.073413946
7	0x3cd3afa7	0.025840594
8	0xbe111969	-0.1416985
9	0xbd32871a	-0.043585874
10	0xbd076d14	-0.03306301
11	0xbd843684	-0.064557105

conv_layer3x3_2.weight f4 [16, 16, 3, 3]
0	0x3d7f752b	0.0623676
1	0x3dbf0856	0.09327762
2	0x3cc738b8	0.024319038
3	0x3d80d0cb	0.06289824
4	0x3d223172	0.039597936
5	0x3d81fef7	0.06347459
6	0x3da91a2d	0.08256946
7	0x3d390bb3	0.045177173
8	0x3d7d6fd1	0.061874215
9	0x3d61520f	0.055009898
10	0x3de156e2	0.110029
11	0x3d8f3a31	0.06993521
12	0x3c8cb258	0.017174885
13	0x3d6b2c0e	0.05741506
14	0xbd393a49	-0.0452216
15	0x3d63b72f	0.05559462
16	0x3df96ee2	0.12179352
17	0x3d9a2d2f	0.07528149
18	0x3cc3d49c	0.023905091
19	0xbc85b93e	-0.016323682
20	0x3a88d0da	0.0010438219
21	0x3d69ec8c	0.057110354
22	0xbc4d4bdb	-0.012530292
23	0xba23ce0c	-0.000624866
24	0x3d02fd12	0.031979628
25	0x3d39a8b1	0.045326892
26	0x3d8102e7	0.06299382
27	0x3da850a5	0.08218507
28	0x3dc46dc1	0.095912464
29	0xbd8ae2db	-0.067815505
30	0x3d57708f	0.05259758
31	0x3be36f09	0.0069407267
32	0x3ce812ba	0.028329242
33	0x3cb9ee0d	0.02269652
34	0x3dc93868	0.09825212
35	0x3cf4728f	0.029839782
36	0xbb7834ed	-0.0037873343
37	0xbbb1677c	-0.0054139476
38	0x3cf9f14f	0.030510573
39	0x3c88976a	0.016673762
40	0x3d66a6d0	0.05631143
41	0x3d063633	0.032766532
42	0x3c564993	0.013079065
43	0x3ce014f4	0.027353741
44	0x3c1443ef	0.0090494
45	0x3b2e6228	0.0026608799
46	0x3d8457eb	0.064620815
47	0x3c3b75f4	0.011441696
48	0xbb999d8e	-0.0046879714
49	0x3c86c79d	0.016452605
50	0xbcc18584	-0.023623236
51	0xbc360be6	-0.011111235
52	0x3d23cd13	0.039990496
53	0x3cbdf6f3	0.023189044
54	0x3c87a4cf	0.016558079
55	0x3cd88d69	0.026434617
56	0x3d7be652	0.061498947
57	0x3d36da2d	0.044641662
58	0x3cb99b96	0.022657197
59	0x3d81abd2	0.063316
60	0xbb309bbe	-0.0026948298
61	0xbc9f76c4	-0.019465812
62	0x3c01b5cc	0.007916879
63	0xbcd91cf0	-0.026503056
64	0xbd497d77	-0.04919192
65	0x3dbd4635	0.092419066
66	0x3d57d3c3	0.052692186
67	0x3d9dc1b7	0.07702964
68	0x3d82dbee	0.063896045
69	0x3d84b931	0.06480635
70	0x3ae35620	0.0017344393
71	0x3bd376d6	0.0064533753
72	0x3ce45f0f	0.027877359
73	0x3ccdca89	0.02512099
74	0x3d808de8	0.062770665
75	0x3cc8608b	0.024460098
76	0x3cd71eef	0.026259867
77	0x3ccaea4d	0.024769926
78	0xbc428695	-0.011872907
79	0x3d40b1cc	0.04704456
80	0x3da2790a	0.079332426
81	0x3da04dd6	0.07827346
82	0x3d613f53	0.05499203
83	0x3cf5a9d9	0.029988216
84	0x3c78d989	0.015188583
85	0x3b4f8568	0.003166521
86	0x3d8eaed0	0.069669366
87	0x3d7b7e98	0.061400026
88	0x3cd61671	0.026133748
89	0x3d532893	0.051552366
90	0x3c7775c5	0.015103762
91	0x3c062f95	0.008190055
92	0x3ba12021	0.00491716
93	0xb982d096	-0.0002495094
94	0x3c1db413	0.009625453
95	0x3ce8c638	0.02841483
96	0x3c4c7a12	0.012480276
97	0x3c234e8c	0.0099674575
98	0x3c1dcff8	0.009632103
99	0x3da13316	0.07871072
100	0x3e24f115	0.1610759
101	0x3cc92c15	0.024557153
102	0xbd78a4cf	-0.06070405
103	0xbdbf2431	-0.09333075
104	0xbd7bb3dc	-0.061450824
105	0xbd91cef2	-0.0711955
106	0xbac1c671	-0.0014783872
107	0xbaa726f1	-0.0012752694
108	0xbca2cb51	-0.01987234
109	0xbcd16b1c	-0.025563769
110	0x3d06ccc0	0.03291011
111	0x3c688e1f	0.014194041
112	0x3d853fa6	0.065062806
113	0x3d2cd729	0.04219738
114	0x3d3d9c23	0.04629148
115	0x3c2b1697	0.010442398
116	0x3d04a4db	0.03238378
117	0x3cc27721	0.023738446
118	0xbd4937ef	-0.049125608
119	0xbb3d688a	-0.0028901421
120	0xbdaa3ec5	-0.083127536
121	0x3d044f8c	0.032302424
122	0xbdd34e45	-0.10317663
123	0xbd36155c	-0.044453964
124	0x3d5e9704	0.05434324
125	0xbd71f23c	-0.059068903
126	0x3c492944	0.012277905
127	0x3ccccfae	0.025001373
128	0x3cc09f47	0.02351345
129	0xbd810930	-0.063005805
130	0xbcd4823e	-0.02594101
131	0xbd1e3fab	-0.038634937
132	0xbdb7fa2d	-0.08983264
133	0xbcdd5107	-0.027016176
134	0xbcf58bf2	-0.029973958
135	0xbcc7afb5	-0.024375776
136	0xbd0712eb	-0.032977026
137	0xbcade74c	-0.021228455
138	0x3d74a69f	0.059729215
139	0x3dc13a26	0.09434919
140	0x3d961b5c	0.07329437
141	0x3d6fc9f3	0.058542203
142	0x3c97fd01	0.018553259
143	0x3d8b102d	0.06790195
144	0x3c58ef93	0.013240713
145	0x3c6f6511	0.014611498
146	0x3aa9b6b1	0.0012948123
147	0x3d925145	0.07144407
148	0xbc98c9d4	-0.018650927
149	0x3c91323b	0.017724147
150	0x3a627a8d	0.00086394773
151	0xbcfa546a	-0.03055783
152	0x3dbfc69b	0.09364053
153	0xbcd8d4aa	-0.026468594
154	0x3c96f7d8	0.018428728
155	0xba9e77de	-0.0012090167
156	0xbd173b8f	-0.036922034
157	0xbc4d8f30	-0.012546346
158	0xbd19b622	-0.03752721
159	0xbc897887	-0.016781105
160	0x3db01236	0.085972235
161	0x3d7d0ad5	0.06177791
162	0x3cc966ce	0.024585154
163	0xbd5422e7	-0.051791098
164	0x3ce1e00c	0.027572654
165	0x3deb7c9e	0.11498378
166	0x3d8af95d	0.067858435
167	0xbd1879b9	-0.03722546
168	0xbd406f8f	-0.04698139
169	0xbbdce488	-0.0067411102
170	0x3da6ff19	0.08154125
171	0x3d2d08ad	0.042244602
172	0xbd38d9dd	-0.045129646
173	0xbd3c8b31	-0.04603118
174	0x3c19215a	0.009346331
175	0xbd19a4a0	-0.037510514
176	0xbd0802e7	-0.033205893
177	0xbd1f1df9	-0.038846944
178	0xbbad1a2c	-0.005282661
179	0x3c7403c6	0.014893478
180	0xbc9695f7	-0.018382056
181	0x3c9fbea2	0.01950008
182	0x3cd40700	0.025882244
183	0x3c2558ec	0.010092001
184	0x3d1f1437	0.038837638
185	0x3d674ae4	0.056467906
186	0xbc6920d3	-0.014229017
187	0xbcb2b8d6	-0.021816652
188	0xbd177afe	-0.03698253
189	0x3c404470	0.011735067
190	0x3db15143	0.086580776
191	0x3c3ab0a4	0.0113946535
192	0xbc42fd96	-0.01190128
193	0x3d38fe1f	0.045164224
194	0xbd82ce88	-0.06387049
195	0x3cb8cd71	0.0225589
196	0x3d999581	0.07499219
197	0x3d3e440b	0.04645161
198	0x3c850c02	0.016241077
199	0x3db21f6a	0.08697398
200	0x3de14507	0.10999494
201	0xbb5002ee	-0.0031740027
202	0x3c1a826f	0.009430512
203	0x3d43132f	0.047625717
204	0xbcfb4e0c	-0.030676864
205	0x3bf17875	0.007369096
206	0x3c399007	0.011325843
207	0xbddedc9a	-0.1088192
208	0x3d73a295	0.059481222
209	0x3df120e9	0.11773855
210	0xbd13120e	-0.03590589
211	0x3cc024e6	0.023455095
212	0x3da9b4ee	0.08286463
213	0xbcf50636	-0.029910188
214	0xbd11aee6	-0.035567187
215	0x3b1a0f6a	0.0023507723
216	0x3c9e10d9	0.019295143
217	0xbcb448dc	-0.022007398
218	0xbc81a03c	-0.015823476
219	0x3db1e440	0.08686113
220	0xbc340481	-0.010987402
221	0xbdf7de29	-0.121029206
222	0x3a94465a	0.001131247
223	0x3c9225cc	0.017840289
224	0x3d23a962	0.039956458
225	0xbc88d0fb	-0.016701212
226	0xbdbbcd61	-0.09170032
227	0xbd0cf819	-0.034416292
228	0x3c905e8c	0.017623208
229	0xbc4c5953	-0.012472468
230	0x3b92f00f	0.0044841836
231	0xbd169a40	-0.036768198
232	0x3cd0b426	0.025476526
233	0x3d9f162b	0.077679
234	0x3c21ffea	0.009887675
235	0xbada0c09	-0.0016635667
236	0x3c19518d	0.009357822
237	0xbc4fc627	-0.012681521
238	0xbc9233bb	-0.017846933
239	0xbc180c3f	-0.009280263
240	0x3b82b006	0.003988269
241	0xbc4fa087	-0.01267255
242	0x3cc90523	0.024538582
243	0x3d1b01bb	0.037843447
244	0xbcc60a8c	-0.024174951
245	0xbdd767a7	-0.10517817
246	0x3d191167	0.03737011
247	0x3ce74183	0.02822948
248	0xbdb6944b	-0.089150034
249	0x3c6c54cb	0.014424513
250	0xb897879c	-7.2255e-05
251	0x3d0d45b2	0.034490295
252	0x3d1234b9	0.03569481
253	0x3d72fb55	0.05932172
254	0x3c7eb181	0.01554525
255	0x3d0b82af	0.034060176

conv_layer3x3_2.bias f4 [16]
0	0xbd1044d7	-0.0352219
1	0xbda8ed88	-0.082484305
2	0xbdf60e5a	-0.12014456
3	0xbd98c6c6	-0.07459788
4	0xbd4b4e6f	-0.049635347
5	0x3bf8dac8	0.00759444
6	0x3c81c58a	0.015841264
7	0xbc142a4e	-0.009043289
8	0xbd782649	-0.060583387
9	0xbd9d938c	-0.07694158
10	0x3c3e5953	0.011617976
11	0xbc0b1cf1	-0.008490787
12	0xbc91e6d4	-0.017810263
13	0xbda8091a	-0.08204861
14	0xbd335fd8	-0.043792576
15	0x3ce9affd	0.0285263
