4class_model.pth (torch, 90990 bytes, 42 tensors)

bn_1.weight f4 [8]
00000000: 6b7d 583f 329c 733f fe19 8a3f 9a71 953f
00000010: 2da6 6c3f 61e7 803f eb80 693f dcdf 783f
0.8456637 0.9516021 1.0789182 1.1675293 0.92441064 1.0070611 0.9121234 0.9721658

bn_1.bias f4 [8]
00000000: 9388 c43d 1af9 4cbd b49f 1cbe da31 95bd
00000010: 3136 3cbe b8c1 2bbd 3429 20bd 8700 403c
0.09596362 -0.05004225 -0.15295297 -0.07284899 -0.18380047 -0.04193279 -0.039101794 0.011718876

bn_1.running_mean f4 [8]
00000000: b489 ce3e 9dad 8f3e 7868 873e f2a1 283e
00000010: c2a2 973e ba39 a23e fef5 6d3e c42c b53e
0.40339434 0.28062144 0.2644689 0.16468027 0.29616362 0.31684667 0.2323837 0.35385716

bn_1.running_var f4 [8]
00000000: f65d 5a3e be30 ec3e c7cb 133f 8293 ac3d
00000010: 7b10 953e 55f7 7a3e d0b7 af3e 8570 2e3f
0.21324906 0.46130937 0.57732815 0.084265724 0.29114136 0.24508412 0.34319925 0.6814044

bn_2.weight f4 [12]
00000000: 0f43 693f 96d8 8e3f 1731 4f3f 8692 523f
00000010: 31e6 913f 1b3d 543f 4202 743f 89d1 6c3f
00000020: 80c0 343f 1779 843f 160b 7f3f 588a 4c3f
0.9111795 1.1159847 0.8093428 0.8225483 1.1398374 0.8290574 0.95315945 0.92507225
0.7060623 1.0349454 0.9962629 0.79898596

bn_2.bias f4 [12]
00000000: 2a75 6e3d 95c1 0ebd 2077 a63c 631a 1f3d
00000010: 961a aa3d 98b3 2f3e 2e19 36bd de32 e33d
00000020: ca60 f83c b10d 9fbd 75d6 bdbd d224 0a3d
0.058217205 -0.034852583 0.020320475 0.038843524 0.08305852 0.17158353 -0.044457607 0.110936865
0.03031959 -0.07766283 -0.0926942 0.03372652

bn_2.running_mean f4 [12]
00000000: ac32 003f e1fe a63e 5a30 743e a6e0 603e
00000010: 16ac df3e 8d9e 3f3e 0893 563e 9138 c53e
00000020: f17b c73d 28d8 5d3e 9fed 693e b570 3f3e
0.5007732 0.32616332 0.2384657 0.21960697 0.4368598 0.18712826 0.20954525 0.3851972
0.09740437 0.21664488 0.22844552 0.18695338

bn_2.running_var f4 [12]
00000000: f630 0a3f b00c 6a3e bfb4 6b3e 363a 603e
00000010: 7b11 da3e 0db0 893e 1169 063e 1640 af3e
00000020: 1818 683d 833b c63d 4771 5b3e c746 223e
0.5398096 0.22856402 0.23018168 0.21897206 0.42591462 0.2689213 0.13126017 0.3422858
0.056663603 0.0967932 0.2142993 0.15847312

bn_3.weight f4 [16]
00000000: cbf5 253f 069a 423f c9b1 593f ba33 713f
00000010: 1f8c 033f eb3e 363f 839c 423f feef 823f
00000020: c813 ff3e bcbd 4d3f 166d 493f f0a6 5f3f
00000030: d5a8 db3e fbba 5d3f 991e 373f 170b 6b3f
0.64828175 0.7601627 0.85036904 0.94219553 0.5138568 0.71189755 0.7602007 1.022949
0.4981978 0.80367637 0.78682077 0.873641 0.42902246 0.86613435 0.71531063 0.91813797

bn_3.bias f4 [16]
00000000: ad6d 53bd 0914 5fbd 6e3a a2bb 5422 02be
00000010: 6de3 713c 6ea0 3abd 8e0b ab3c dacb 39bd
00000020: f666 f13c 6db6 4bbd a0a1 863e 1379 643d
00000030: f5ac 98bd 4ca1 07be d54e e0bc faab a3bd
-0.051618267 -0.054462466 -0.004950813 -0.12708408 0.014763695 -0.045563154 0.020879533 -0.045360424
0.02946804 -0.04973452 0.26295185 0.055779528 -0.07454864 -0.13245124 -0.02738134 -0.07991786

bn_3.running_mean f4 [16]
00000000: ef9a bd3e 2c9a 9e3e 51d0 9e3e dc6d a33e
00000010: 226a 0a3e f674 5a3e a007 2b3e fe2f ae3e
00000020: 0b56 f43d da13 dd3e 8f92 933e 41fb d83e
00000030: 9e97 263e 118b 4a3e 2a86 633e 77b7 023f
0.37032267 0.30977 0.31018308 0.31919754 0.13517049 0.2133368 0.16702127 0.3402099
0.11930474 0.43179208 0.28822753 0.42379192 0.16268775 0.19779612 0.22219148 0.51061195

bn_3.running_var f4 [16]
00000000: a627 b33e 9fac 583e b019 8f3e cca1 783e
00000010: e8fa c23d f4d2 063e 1939 113e bb26 e73e
00000020: 1ddf 4a3d 46d8 d63e a192 9a3e 2c1b a43e
00000030: f83d af3d 012b 433e 5371 083e 6f3f d93e
0.34991187 0.211596 0.27949286 0.2428047 0.09520513 0.1316641 0.14181937 0.45146737
0.049529184 0.4196188 0.30189994 0.3205198 0.085567415 0.19059373 0.1332448 0.42431208

bn1d_1.weight f4 [12]
00000000: 0000 803f 0000 803f 0000 803f 0000 803f
00000010: 0000 803f 0000 803f 0000 803f 0000 803f
00000020: 0000 803f 0000 803f 0000 803f 0000 803f
1.0 1.0 1.0 1.0 1.0 1.0 1.0 1.0
1.0 1.0 1.0 1.0

bn1d_1.bias f4 [12]
00000000: 0000 0000 0000 0000 0000 0000 0000 0000
00000010: 0000 0000 0000 0000 0000 0000 0000 0000
00000020: 0000 0000 0000 0000 0000 0000 0000 0000
0.0 0.0 0.0 0.0 0.0 0.0 0.0 0.0
0.0 0.0 0.0 0.0

bn1d_1.running_mean f4 [12]
00000000: 0000 0000 0000 0000 0000 0000 0000 0000
00000010: 0000 0000 0000 0000 0000 0000 0000 0000
00000020: 0000 0000 0000 0000 0000 0000 0000 0000
0.0 0.0 0.0 0.0 0.0 0.0 0.0 0.0
0.0 0.0 0.0 0.0

bn1d_1.running_var f4 [12]
00000000: 0000 803f 0000 803f 0000 803f 0000 803f
00000010: 0000 803f 0000 803f 0000 803f 0000 803f
00000020: 0000 803f 0000 803f 0000 803f 0000 803f
1.0 1.0 1.0 1.0 1.0 1.0 1.0 1.0
1.0 1.0 1.0 1.0

bn1d.weight f4 [64]
00000000: 9276 4d3f 9ab7 4b20 3ce5 553e 0c37 933d
00000010: a25a cb3e d5a0 873e 184f 0b3e d0cf 363f
00000020: 5eb6 923e dd61 853d 47f9 1a3f da54 ad3e
00000030: 3acb 173d 42f8 873d cdd7 163d 827f 7a3e
00000040: c868 863d 7860 103f e20d ea3e 35d6 223f
00000050: e196 e63e c9e5 673e 640a 523f ade4 053f
00000060: bd01 ed3e 8654 043f 7e9f 8b3e 6c6f b13c
00000070: c6e9 673d a9c8 243f 162e 373f fc32 763e
00000080: c478 323f 6135 7a3e 36d7 913d 9c02 ef3e
00000090: b2cc 7c3a c555 6c3f b1c5 483f aa11 e83e
000000a0: 3fac 993d 080f 1b3f eb93 4e3f 4eaa 0d3f
000000b0: 8bb0 a83d 8391 793e f59b bd3e d787 863d
000000c0: 5f58 193f 0e43 d33d 8baa a83d 1b5a 183d
000000d0: d476 ec3e a915 0d3f 5332 dc3e 0d0f 853d
000000e0: 12c8 bb3e 7a4a 703d d7bc 073f dc87 803d
000000f0: 8c68 463e 908c 963d 1122 263f a12e 093f
0.8025905 1.7255517e-19 0.20888227 0.07188234 0.39717585 0.26489893 0.1360439 0.71410847
0.2865476 0.065128066 0.6053662 0.338538 0.037059046 0.06639148 0.036826897 0.24462703
0.06562954 0.563972 0.45713717 0.63608104 0.45036986 0.2264625 0.82047105 0.52302057
0.4629039 0.5169147 0.2727012 0.021659575 0.056619428 0.64368683 0.71554697 0.24042886
0.69715524 0.24434425 0.07121126 0.46681678 0.0009643539 0.92318374 0.78426653 0.45325977
0.075035565 0.6056981 0.80694455 0.5533799 0.08236798 0.24371915 0.37033048 0.06568878
0.5990047 0.10315524 0.082356535 0.037195306 0.4618441 0.55111176 0.43007144 0.06497011
0.3667608 0.058664776 0.5302252 0.06275913 0.19375819 0.07351029 0.6489573 0.53586775

bn1d.bias f4 [64]
00000000: 9038 0f3e b920 8da8 f793 a93d f60e 773c
00000010: 1e04 6d3d d111 d83c ad76 d73c 510c a33d
00000020: 19a7 153e c54f 743c 196d 4c3e c57b 283e
00000030: c1df 903c b807 5b3c b045 593c f446 013d
00000040: 9291 803c d010 393e ec53 193e c473 773d
00000050: 53c7 0d3e 1f2f ef3c b849 153e bca6 0e3e
00000060: e2ba 113e 87fe 513d 4d28 f83c 5f11 e43c
00000070: cf38 a73c 9177 993d 75d2 7d3d 52bf f93c
00000080: 238d b63d 8427 4a3e cd02 903c b612 563e
00000090: a24e 1f3d 9128 393e 81e4 df3d 8d08 cb3d
000000a0: 4db4 633c 2a2f 233e c3ac fd3d ba47 c83d
000000b0: 978a da3d 17b6 233d 4163 713e 0214 a13d
000000c0: a54a 233e 7a72 ca3d 2bf5 653c a764 2e3d
000000d0: 8104 223e 3bbd fd3d 7093 5d3e 5000 cf3d
000000e0: ddc6 113e 453a 5c3c e306 633e 6e99 9e3c
000000f0: 615a 053d 04b6 a63c 0ada a03d cbd1 cf3d
0.1398642 -1.5668336e-14 0.08280175 0.015079251 0.057865255 0.026375683 0.026301706 0.079613335
0.14614524 0.014911597 0.19963492 0.16453464 0.01768482 0.0133685395 0.013261244 0.031561807
0.015694413 0.1807282 0.1497342 0.060413137 0.13845567 0.029197274 0.14578903 0.13930792
0.14231446 0.051268127 0.030292654 0.027840314 0.02041283 0.074935086 0.061968286 0.030486736
0.089136384 0.19741637 0.01757946 0.20905575 0.03889335 0.18081881 0.109322555 0.0991374
0.0138979675 0.1593596 0.12386467 0.09779306 0.10670965 0.039968576 0.23573019 0.07865144
0.15946443 0.09885116 0.014035503 0.04257646 0.1582203 0.123896085 0.21638274 0.101074815
0.14236017 0.013441627 0.22170596 0.01936027 0.032556895 0.020350464 0.07854088 0.10147437

bn1d.running_mean f4 [64]
00000000: 8644 14bf 7b92 8733 7dd5 b23f bbd6 8a3e
00000010: 1383 a63f e17a 90be 3386 60bf 365b a2bf
00000020: 04e7 f63f bd5e cb3e 54d1 1a40 7af3 8c3f
00000030: b1ba a23e f40b 3e3f 922a 0f3f 6f18 c13e
00000040: da72 dcbe 1b06 1840 32ff 1040 0582 7b3d
00000050: ac84 9d3f 7ae2 7a3e c3da c4bf 372e dbbe
00000060: 6430 71bf 8b7f 613f 72a0 c8bf 42b8 7e3f
00000070: 1641 143f 55fc 01be 1c8d 17be bbc5 463e
00000080: 77b2 14c0 b34d 0940 8ee0 f1be bbb5 1c40
00000090: 049a 1fbf bd0e 2140 e61b 353f a6e0 8cbc
000000a0: 3218 ff3e ce37 ba3f b244 783f 62f8 753f
000000b0: d74a c13f e9c3 d8bf 623c 7040 eb8e b2bf
000000c0: 0290 0c40 7483 543f 3c39 ef3e 2d07 ac3f
000000d0: 0c16 1a40 f074 9b3e cf25 0040 99a7 543f
000000e0: 567b b33f a628 c63e 7c4d 3740 e56d 8dbe
000000f0: 5f1a d6be 0453 0a3f 76f9 3c3f 3f12 163f
-0.5791706 6.313072e-08 1.3971401 0.2711695 1.3008751 -0.2821875 -0.8770477 -1.2684085
1.928925 0.39720717 2.4190264 1.1011803 0.3178306 0.7423699 0.5592433 0.37713954
-0.43056375 2.3753726 2.265576 0.061403293 1.2306113 0.24500456 -1.5379261 -0.42808697
-0.94214463 0.8808524 -1.5673964 0.99499905 0.57911813 -0.12693913 -0.14799923 0.19411366
-2.3233926 2.1453674 -0.47241634 2.448592 -0.62344384 2.5165246 0.70745695 -0.017196964
0.49823147 1.454828 0.9697982 0.9608213 1.5100964 -1.6934787 3.7536855 -1.3949865
2.1962895 0.8301308 0.46723354 1.343969 2.4075956 0.30362654 2.0023077 0.83068234
1.4022014 0.38702887 2.8641043 -0.27622905 -0.41816995 0.5403292 0.7381815 0.5862159

bn1d.running_var f4 [64]
00000000: 0df9 4941 d4d6 fe2a e055 4640 fcd8 933f
00000010: 3114 9b40 d6e0 cf3f 7914 923f 4fd7 8d41
00000020: 0bb2 8840 2faf 913f e760 1d41 9dc7 b640
00000030: ad80 b03f 1ba2 7d3f 645c 903f 7c5e af3f
00000040: 4c25 ae3f da2c 0241 ffc0 1c41 164f 4941
00000050: 6c23 8e40 8d1d a63f c9f6 6841 b86c cf40
00000060: 56a9 a340 735e 0241 291a 4a40 1596 793f
00000070: 6162 873f 3d8f 5441 7ae2 6941 4e1b cd3f
00000080: 40d7 1941 137f a340 fa0b c73f add1 0941
00000090: c452 2a3f ef67 cd41 8308 3b41 6b00 e940
000000a0: 529d a23f e27c 4841 d6bd 3e41 7300 0c41
000000b0: e05c fc3f 3d82 3040 07f1 1241 bb92 8d3f
000000c0: 5706 5041 7296 c33f 7d73 9e3f b829 b53f
000000d0: 1773 1a41 a314 1641 aa3a d940 9550 d13f
000000e0: 311c 9e40 df02 903f 5371 2041 47fa be3f
000000f0: 4824 883f c1ae 943f 48e2 4041 ee79 0741
12.623303 4.526853e-13 3.0989914 1.1550593 4.846215 1.624049 1.1412498 17.730131
4.2717338 1.1381587 9.836158 5.711867 1.3789269 0.9907548 1.1278195 1.3700709
1.3605132 8.13595 9.797118 12.581808 4.441824 1.2977768 14.56025 6.4820213
5.114421 8.148059 3.1578467 0.9749463 1.0576898 13.28497 14.617792 1.6023958
9.615051 5.109262 1.555053 8.61369 0.6653254 25.675749 11.689578 7.281301
1.270426 12.530489 11.921347 8.75011 1.9715843 2.757949 9.183845 1.1060404
13.001548 1.5280287 1.2378994 1.4153357 9.653098 9.380038 6.788411 1.6352717
4.9409413 1.1250876 10.027667 1.4920129 1.0636072 1.1615831 12.055244 8.467268

line1.weight f4 [64, 200]
00000000: 72fd f33b d6ef 81b9 a18f ddba 40b9 fdb9
00000010: a981 94b9 e932 d639 601f 723d 8426 fa3d
00000020: 168b a73d 7d38 903d 4fbf 2f3c 4bc3 8cbc
00000030: 1321 d2bd 18c3 88bd 93cb 2abd 40a1 30bc
00000040: 8416 f53c 7645 053d f7be 7a3b 011a 283d
00000050: f52c 80bc d193 cfbb 8e7f a93d beb5 fc3d
00000060: 79bf bf3d 4d12 26bc d43c dfbc 4cb7 32bb
00000070: 320a 95ba 9282 d639 6922 3a3b 925c 853b
00000080: 714c 4bbc bba7 373c d46b 9a3d 2068 f2bc
00000090: 9d75 05bd b415 1abe 1531 aebd 0dd9 22bd
000000a0: 57d8 00bd 0582 24bc 18a1 1ebd a660 a4bb
000000b0: deee cfbc 7c42 93bb 1959 1e3d 49d1 bd3d
000000c0: bf9f b83d ec40 59bb 7fe6 8fba d164 643b
000000d0: 9955 9cbb 42c9 293c 8e55 0a3b 59c4 18bd
000000e0: b6c0 aabc 4c95 243c 71ff 0abc 8410 65bd
000000f0: 3ac3 24bd 34e5 c7bd d492 8dbc 904c 2e3c
00000100: 0557 293c 3f4b e73c b8d8 ba3c 93d4 a33c
00000110: 2abc 5f3d 807a 063d 839d 50bd 7869 12be
00000120: a0cf cb3c 5dff d63d fe41 843d c443 45bc
00000130: a307 42bc 4624 6f3c 3065 a13a 0f9f 103c
00000140: 7abf a83d 9a39 62bd 70c4 a6bd de0d 5bbd
00000150: a672 9c3b 7b81 9f3d e828 e93b eb5d 6c3c
00000160: 8280 c03c 4988 f83b 89a4 993d 8400 0b3b
00000170: a86c 403d f364 fdbb 3731 843d afe1 133e
00000180: 25f0 07bc 5ee8 0dbe c659 e3bd c4a0 11bd
00000190: b278 293c c77c 83bb 135e 003c 26ee f13c
000001a0: ebe6 473b 0c54 00bc 119a 94bd 4a8c 34bd
000001b0: 6428 febc 5374 a1bc 485d 303b cc61 91bc
000001c0: e8cc 39bc e264 f7bb 1c1f f8bc 2830 ebb8
000001d0: 466a 1abd 9f3f 65bd 52a7 4abd 6bd6 82bd
000001e0: c482 adbb 97c2 393d 9462 693d e0e6 d33d
000001f0: 8351 fe3d 137b b33c 9e5b 9a3c be9e 5c3c
00000200: c4ef 5b3b dd77 0ebb a6e7 cb3c f9f3 113d
00000210: 0f94 b33d 89a8 f93c 74a3 5d3d 911d 5dbb
00000220: b468 0c3d 5982 023d fb5d 60bd e919 dfbd
00000230: a6ae 233c 3b9a ab3c cdaa 61bc d888 88bd
00000240: 169d e0bd cc39 d2bc 5297 fa3d 2d7a 363d
00000250: 1af0 2f3b 0ee7 4bbe 0b59 8c3b d867 0ebc
00000260: 2575 9a3d 8180 ba3d 1739 a03d 86c0 15bc
00000270: 3198 313c 0b08 dfbd d020 febd 0c0a c0bd
00000280: cd20 d73c f563 083d a3a6 88bc 45e6 183b
00000290: e1ee ce3c 6cc6 cbba bea4 b1bd 1cca 69bc
000002a0: 1f07 043c 2349 173d f159 e23b aaac 773d
000002b0: d60c babb 0dbe b5bb 98bb 2f3c 60cb 343b
000002c0: da65 85bb 2110 1fbd 2be1 6ebd 379c 8dbd
000002d0: bdb7 263d 3af2 c53d 2b7c ea3d 6907 6e3d
000002e0: 5120 853d 4341 023c 1ccc 0c3d cd07 483d
000002f0: d9b3 b4ba 7434 86bc e2b9 f7bb acac 14ba
00000300: 2589 fe3d addc 8b3d 2c54 353c f67f b4bb
00000310: 7899 01be b91f b03d b2a2 223d 077b 80bd
00000320: f81d d797 d0cf 0b19 ce43 3098 6852 b817
00000330: 3003 3b17 6e71 4898 1462 1218 1bde 9318
00000340: 6222 261a 8920 1e19 3bbc 0199 22b0 a118
00000350: 2d00 4119 106b 9417 6fe6 c418 7177 8b19
00000360: 8c5d 8419 d5e1 3419 7500 6099 dac4 3319
00000370: 9927 d918 8ca5 4a17 8c24 9a18 206c 1417
00000380: 7239 059a d44b ab97 eac1 6d19 6410 d299
00000390: 119e 3d2e 5ceb e0ae 5bea 6997 5066 7e18
000003a0: e680 1c19 00ba b696 f613 d699 58b7 4599
000003b0: 42a6 9b99 0695 4e99 6163 2119 ec06 3019
000003c0: 664d bf98 c5d6 8d18 e814 131a 12e3 9998
000003d0: d790 9099 c20a d399 c74b 1619 00e9 fd95
000003e0: 55dc 6d19 48f0 8b99 f98a af16 209b ec14
000003f0: b5e0 4d97 e34e 5316 1557 edb2 40e8 2f97
0.0074459845 -0.0002478349 -0.0016903767 -0.00048393942 -0.00028325364 0.00040855192 0.059111953 0.122143775
0.081808254 0.07042024 0.010726764 -0.017182967 -0.10260215 -0.06677836 -0.04169805 -0.0107806325
0.029917963 0.032536946 0.0038260797 0.041040424 -0.015646437 -0.0063347598 0.08276282 0.12339352
0.093626924 -0.010136199 -0.027250685 -0.0027269898 -0.0011370836 0.00040914543 0.0028401858 0.004069873
-0.012408362 0.011209424 0.07540098 -0.029590666 -0.032582868 -0.15047342 -0.085054554 -0.039757777
-0.031456318 -0.010040765 -0.03872785 -0.005016404 -0.025382455 -0.0044940095 0.03865919 0.092684336
0.09014844 -0.0033150269 -0.0010978727 0.003485013 -0.004770946 0.010362925 0.0021108123 -0.037296627
-0.020843845 0.010045361 -0.008483754 -0.055923954 -0.040225245 -0.09760514 -0.017281927 0.010638371
0.0103356885 0.028234122 0.022808418 0.019998824 0.054622807 0.03283167 -0.050931465 -0.14298046
0.024879277 0.104979254 0.064578995 -0.012040082 -0.011842641 0.014596051 0.0012313481 0.008826985
0.08239646 -0.055230714 -0.08142936 -0.05348002 0.0047744093 0.07788368 0.007115472 0.014426689
0.023498777 0.007584606 0.07502086 0.0021210024 0.046978623 -0.0077329814 0.064546995 0.1444156
-0.008297001 -0.13858172 -0.11101107 -0.03555371 0.010343717 -0.0040126774 0.007834929 0.029532503
0.0030502628 -0.007832538 -0.07255948 -0.044079103 -0.03102512 -0.019708788 0.0026911069 -0.017746828
-0.011340357 -0.007549868 -0.030288272 -0.00011214643 -0.037699006 -0.055968877 -0.049475975 -0.06388553
-0.0052951295 0.04535159 0.056978777 0.1034677 0.12417891 0.021909272 0.018842515 0.013465581
0.003355966 -0.0021738925 0.024890732 0.03563306 0.08768474 0.030475872 0.05411096 -0.0033739547
0.03427954 0.03186259 -0.054777127 -0.10893614 0.00999037 0.020947566 -0.013773632 -0.06666726
-0.10967462 -0.025662325 0.12235893 0.04455011 0.0026845993 -0.19912359 0.0042830757 -0.0086917505
0.07541875 0.091065414 0.07823389 -0.009140139 0.010839508 -0.10890206 -0.12408602 -0.09376916
0.026260758 0.03329845 -0.016681021 0.002333061 0.02526039 -0.0015546805 -0.08674 -0.014269378
0.008058338 0.036934983 0.0069076945 0.0604674 -0.0056777997 -0.0055463375 0.010725878 0.0027587041
-0.0040709795 -0.03883374 -0.058320206 -0.06914561 0.04070257 0.09665342 0.114494644 0.058112536
0.065003045 0.00795013 0.03437434 0.048835564 -0.0013786509 -0.016382433 -0.0075600008 -0.0005671482
0.12428502 0.068292 0.011067431 -0.005508418 -0.126562 0.085998006 0.03970594 -0.062734656
-1.3901615e-24 7.228099e-24 -2.27817e-24 1.1911524e-24 6.042698e-25 -2.5906661e-24 1.8919575e-24 3.822288e-24
3.435577e-23 8.174979e-24 -6.7071565e-24 4.1795373e-24 9.977902e-24 9.591302e-25 5.089749e-24 1.4420505e-23
1.3686263e-23 9.351388e-24 -1.1580621e-23 9.293837e-24 5.613317e-24 6.547867e-25 3.984497e-24 4.795785e-25
-2.755016e-23 -1.1069758e-24 1.22917735e-23 -2.1720111e-23 4.3114016e-11 -1.0228149e-10 -7.558216e-25 3.2880385e-24
8.091042e-24 -2.9521068e-25 -2.2135144e-23 -1.0221687e-23 -1.6093775e-23 -1.06800454e-23 8.343574e-24 9.1003846e-24
-4.9450495e-24 3.6664508e-24 3.0415775e-23 -3.9778855e-24 -1.4947751e-23 -2.1821234e-23 7.770121e-24 -1.02553495e-25
1.22971085e-23 -1.4469312e-23 2.836048e-25 2.3891096e-26 -6.6522693e-25 1.7069337e-25 -2.7630032e-08 -5.683869e-25

line1.bias f4 [64]
00000000: dc96 fbba 2eef cf18 0ed5 c23a cd72 6ab9
00000010: 3adb 903b 4048 8abb 935f c7b8 3997 a3ba
00000020: d1db f73a 00ce 2bba 6865 c03b da86 773b
00000030: 6269 8938 897f 84b9 23df 81b9 4557 65bb
00000040: 9a62 56b9 abd3 863b 1647 133c b242 3a3b
00000050: 17ab e23b b375 b2ba 5751 80bb 5f68 97bb
00000060: 88a5 1f3a d473 c339 be69 91bb e9b8 46b9
00000070: dda5 74b9 45bb 153a 5e49 afba e199 2bbb
00000080: 66b7 04bc e3b7 763b 377c ab39 a90f 1f3c
00000090: 11f8 51b8 dfb5 553c 8664 c3bb ae45 34bb
000000a0: 4e5b 5aba 124e 043c 686d 8b3b ccc5 d33b
000000b0: 42c7 de3a d686 65bb 1279 d43b a980 c1b9
000000c0: 949d 363c 9ba8 39ba e255 403a dbee 33ba
000000d0: e649 223c 0689 373b 7262 2a3c e051 c43a
000000e0: f1d0 423b 10ec d9b9 9706 793c 1251 0cb9
000000f0: 562f 02bb a1a6 a6b7 fac5 803b ff36 d53b
-0.001919474 5.3749756e-24 0.0014864521 -0.00022358746 0.004420665 -0.0042200387 -9.5068615e-05 -0.0012480981
0.0018910115 -0.0006553829 0.0058714636 0.0037769587 6.552298e-05 -0.00025272023 -0.00024771047 -0.0034994644
-0.00020445362 0.0041145883 0.008989116 0.00284211 0.006917368 -0.0013615399 -0.0039159465 -0.0046205963
0.0006090035 0.00037279597 -0.0044376543 -0.00018951636 -0.00023331442 0.0005711804 -0.0013373306 -0.0026184248
-0.008100366 0.0037646226 0.0003270821 0.0097083235 -5.0060513e-05 0.01304385 -0.005962911 -0.0027507353
-0.00083296455 0.008075254 0.0042549856 0.006462788 0.0016996639 -0.0035022995 0.0064841593 -0.00036907688
0.011145968 -0.0007082314 0.0007337016 -0.00068639003 0.009905314 0.0028005256 0.010399448 0.0014978014
0.002972659 -0.00041565346 0.015199325 -0.00013381641 -0.001986464 -1.9866335e-05 0.0039298506 0.0065068

line2.weight f4 [3, 64]
00000000: 9567 74be 1adc c4a7 c7bc 273e 1f16 febc
00000010: ef26 35be c5d6 14be c146 97bd 072c c6be
00000020: c620 743e f0a2 f5bc dff4 da3e b476 813e
00000030: 46a1 85bc 6d7d f5bc 1d06 80bc 789e 09be
00000040: 5f1f e0bc 82a3 c13e 6352 ae3e b9c7 a8be
00000050: 2f65 733e a57a f4bd 1488 41be f45c ae3e
00000060: 4075 aa3e 5175 9dbe 94e7 12be a165 c13c
00000070: d79d b9bc f635 a0be b663 cbbe ad66 0ebe
00000080: 0841 e3be a5c6 323e 799e 0bbd e73f b73e
00000090: be3d ac3c a27e 2c3f 0d11 013f 958e c4be
000000a0: dabf 05bd 3b89 ee3e 0eea 0abe a715 49be
000000b0: 7c05 cc3d e16a 0cbe 13cf 193e 3214 8f3d
000000c0: 3b46 e23e f61e cb3d 2b22 f9bc e82f 273d
000000d0: 54c5 b33e 6264 adbd 1a82 9b3e c6f6 b53d
000000e0: 91a1 813e 3a56 cdbc c512 bf3e 043e d1bc
000000f0: c662 cebd 563b 04bd 380e cfbe db9b 19be
00000100: 3d26 05bf fece aea7 1d54 7ebd 31b8 2c3d
00000110: 05d4 923e 56e8 c5bd b793 1ebd da95 f23e
00000120: 8b61 33be ef37 323d 1f76 b6be 4d06 e6bd
00000130: 7f0c d83c 387b 253d cff5 c73c 0fc9 a1bd
00000140: 35d1 2b3d 762e cfbd 19c8 2bbe d955 e83e
00000150: b4ef b73a 2194 b5bd 0b4c 11bf 6d38 8dbd
00000160: 2412 ccbd 9338 b23e 65af bbbd cb4f 7ebc
00000170: 0cae 153d 514b e33e 0c40 013f db48 98bd
00000180: c23a bdbd 2462 8bbe 27ac 3e3d 7a1d 50be
00000190: 9432 90bc e3c1 a1be b253 22be fcc0 613e
000001a0: 77a2 443d 0e21 61be a90b 10bf b27a c73e
000001b0: 377d a0bd 7bea 90bd 7854 dbbe a01e 32bd
000001c0: e5e1 30be ac6b 87bd 9bf0 533d 1aa7 d3bc
000001d0: bcde 24be 6ff6 bb3e 5e08 a9be a775 82bd
000001e0: 9332 acbd 3e99 183d ad7a aebe f8b7 243d
000001f0: 99f5 8dbd 9c93 463d 2b76 de3e 767a bd3e
00000200: fc1e f93e 3efd 7a28 da81 04be 3aa5 a2bc
00000210: 922d 51be 800d 483e 2918 c63d b287 6fbe
00000220: 1dd0 f1bd b443 8dbc 3825 67be 1a4a 82be
00000230: 4cad 99bc 6b68 49bc a2ba 4abc 63a7 383e
00000240: 5f86 f1bc f8ad d7be a7c0 90be a8fa 4fbe
00000250: e838 ccbe 528d 253e 6576 f03e 9e27 d0be
00000260: f5e6 a5be eb59 3dbe fa72 553e ef16 5cbc
00000270: 4cde bbbc fc0e 9abe 9396 80be 6f31 303e
00000280: 92e0 c23e f71a 543d 5849 cbbc dbba 99be
00000290: cea5 70bc 91d8 08bf 0fb8 18bf efc2 b73d
000002a0: 8f57 a9bc 0330 b7be fce4 fa3e ed59 acbe
000002b0: 771d 2cbd d913 353e 0868 0e3e af31 56bd
000002c0: f5d5 d3be 7b05 98bd a123 e8bc ce19 ecbc
000002d0: 2244 91be c0cb d2be edf6 73bd a729 46bd
000002e0: 9d93 8ebe 4ace 97bc abc3 40be 75bf e8bc
000002f0: b5d7 0b3e f40a d4bc 1364 35be 8c0b adbe
-0.23867638 -5.4639563e-15 0.16380607 -0.031016408 -0.17690633 -0.14535053 -0.07386542 -0.38705465
0.23840627 -0.029984921 0.42764947 0.25285876 -0.016312253 -0.029967034 -0.015627915 -0.13439357
-0.027358709 0.3782006 0.3404723 -0.32964876 0.23769067 -0.11937455 -0.18899566 0.34055293
0.3329258 -0.30753568 -0.14346153 0.02360803 -0.022658272 -0.3129117 -0.3972451 -0.13906355
-0.44385552 0.1745859 -0.03408668 0.3579094 0.021025535 0.67380726 0.5041664 -0.3839003
-0.032653667 0.46589074 -0.13565847 -0.19637166 0.099619836 -0.13712646 0.15020399 0.06986274
0.44194207 0.09918015 -0.0304118 0.04081717 0.35111487 -0.08466412 0.30372697 0.08884959
0.25318578 -0.02506553 0.37319008 -0.025542267 -0.10077433 -0.03228315 -0.40440536 -0.1500086
-0.5201147 -4.8519123e-15 -0.062091935 0.042167846 0.28677383 -0.09663455 -0.03871509 0.47379953
-0.17517678 0.043510374 -0.35636994 -0.112316705 0.026373146 0.040400714 0.024409203 -0.07899677
0.041947562 -0.101162836 -0.1677555 0.45377997 0.0014033229 -0.08866144 -0.5675666 -0.06895528
-0.099643975 0.34808788 -0.09164313 -0.015521954 0.036542937 0.443934 0.5048835 -0.07435771
-0.09239723 -0.27223313 0.046550896 -0.20323744 -0.017602243 -0.31593236 -0.1585224 0.22046274
0.0480065 -0.21985266 -0.5626779 0.38960797 -0.07836383 -0.070759736 -0.42837882 -0.043486238
-0.17273672 -0.06612334 0.05174313 -0.025836516 -0.16100591 0.3671145 -0.33014196 -0.06370097
-0.08408084 0.03725552 -0.3407797 0.04021451 -0.0693161 0.048480615 0.4344953 0.37007493
0.48656452 1.3932701e-14 -0.1294016 -0.019854177 -0.2042754 0.195364 0.09672577 -0.23391607
-0.118072726 -0.017244197 -0.22572792 -0.2544716 -0.018759392 -0.012292962 -0.012373598 0.18032603
-0.029483018 -0.42124915 -0.28271982 -0.20310462 -0.39887166 0.1616719 0.46965328 -0.40655226
-0.3240277 -0.18491332 0.20844641 -0.013433202 -0.022933148 -0.30089557 -0.2511488 0.17206357
0.3806196 0.05178353 -0.024815246 -0.30025372 -0.014687968 -0.53455454 -0.5965585 0.089727275
-0.020671634 -0.35778818 0.49002826 -0.33662358 -0.042020287 0.17683353 0.13906872 -0.052293476
-0.41374174 -0.0742292 -0.028337302 -0.028820898 -0.28372294 -0.41171074 -0.05956166 -0.048379567
-0.27846995 -0.018530983 -0.18824641 -0.028411606 0.13656504 -0.02588413 -0.17713957 -0.33797872

line2.bias f4 [3]
00000000: b9c8 053d 610e f3bd 372d 4bbd
0.032662127 -0.11867977 -0.049603667

conv_layer5x5.weight f4 [8, 3, 5, 5]
00000000: 70f8 403d 1f70 d13d 70a6 643d 249c e53d
00000010: 6692 073e 6126 db3d 0416 da3d 03a0 4a3d
00000020: d28c 253d 72de dc3d ea05 5b3d 5f33 573d
00000030: df1f 263d 81b6 84bc d86a 773d 5c52 9b3d
00000040: 2e07 893d 3dec 3f3d 9a3e ef3c 17e8 3bbc
00000050: 5093 d33c 392e e93d 4fce 4c3d a7cd 903d
00000060: 947f 843d 37a4 a23c b5c5 283d 21da d0bb
00000070: 5830 9e3d 9547 363d 1978 503d edd8 223d
00000080: a4d7 cb3d 22f6 a03b e053 3c3d 3656 c13a
00000090: 55dd a93d a8aa 293d 7dad 703c 86cb 003d
000000a0: 2b1b 4ebd f095 f1bc c742 ebbc 4bfc 5c3d
000000b0: 0bd4 08bd 6a50 0a3d 8106 6fbd e2a0 48bd
000000c0: 5b30 03bc 4e55 d23b 6f21 f53c b4ca 873d
000000d0: 9295 f73b 3724 ec3c e95a b2bc 51eb f93c
000000e0: f53c 003e e3c4 0c3e e6fe 033d 52a1 a13d
000000f0: c0e3 9e3d 842f 203c ab22 a83d 25f6 0d3c
00000100: 87b4 e03b f117 17bc cc10 3eba a92c 2fbd
00000110: 7cf9 8bbc e540 f23a 62d1 903d 00c1 333c
00000120: 5290 ad3d 298d b8bc 362d 5d3d 68aa 903c
00000130: 8d46 8a3d 197c 6ebd 5869 1b3d f18a d8bd
00000140: b7fd 04bc ab41 aabd a82d 003d 8c47 a8bd
00000150: c3e4 84bd 7778 b63d d6e0 143c 7f97 75bc
00000160: b49d 2a3d e4ba 7ebd 81d4 133c 1cbe 8c3d
00000170: 8b6f 533c 2136 9d3d bfbb 92bd 64ba b03d
00000180: 05de a33d 1634 f63d 03f5 21bd 5530 463c
00000190: 34a1 de3b 6707 e63a 72aa cbbd 384d c0bb
000001a0: e10e 78bd c1f2 c9bc 908d 00be 5ee4 b1bd
000001b0: d29b a1bc f474 79bd 64d3 7e3d 86e0 87bd
000001c0: 1c2f 503b 60ca 07bd 9fc4 29bd 5464 a73d
000001d0: 76d8 913d 8ccb ad3d ab5b 2b3d cb5b 853d
000001e0: 6905 6e3d b21e 9f3c de74 7abd 9219 68bd
000001f0: 9fbd 66bd c4f3 fb3b e569 83bd c905 5c3d
00000200: e04a a1bd df2e d1bd fe27 60bd 8976 a03c
00000210: 380c f4bd dd80 4dbd 3bf9 0bbe df03 a33d
00000220: 649e c83d 8b6c 1bbc 6fe5 d8bc 0055 abbd
00000230: f1b9 3c3d 997c a73b cf1f b43c 7855 fd3d
00000240: ed2e 47bd b75c db3c 0e55 ca3d 5fdd 463c
00000250: e777 38bd ead4 1e3d 305f 24bd 1c8c 0bbd
00000260: c89a 4cbd ef8b 20bd e486 25bd 873d fbbc
00000270: 860a 06bd 7e69 3cbd fd5e 20bd f327 5fbd
00000280: 30a7 6e3d 8ab1 923d b1a7 5b3d 29da a53a
00000290: 7db2 c93c e463 783d a4a2 0d3d c718 863d
000002a0: 73dc 823c ed30 4e3d 45af 313d c3c5 943d
000002b0: 7290 5c3d f050 b3b9 b741 ad3c 9836 78bc
000002c0: 93bd 6abc 4423 a9bc d0d6 95bc dc01 9cbc
000002d0: eb3e f9bc a3b4 c8bc b647 e5bc d90f dbbc
000002e0: ef13 ecbc 4034 05bd 4870 4bbd 949a 05bd
000002f0: 33ea cb3b 41a3 ebbc 5495 1dbd 68d1 cc3c
00000300: a0cc 17bd cbbd e53c 1bfd e1bb 0eea 30bd
00000310: bc0f 41bd 39d8 893c 13b3 27bd 08b6 d23b
00000320: b31e 8dbd e8f3 72bd 5132 99bd c894 71bd
00000330: e482 9dbd 2635 8dbd a204 91bd 0370 96bd
00000340: cca4 7dbd 13fa 90bd fde6 293d 608b 1d3d
00000350: f141 043d 70eb 823d b7d5 a83a 3db8 f2bc
00000360: aaf0 0bbd dea0 e43c 201f 8b3d 2479 8c3d
00000370: cb4a 903c c790 523d c19e 3dbd 1ef2 933d
00000380: 7c75 df3c c0e8 f7bd e0eb d13c 5c90 99bd
00000390: 661f 6b3d 5d61 253d 3314 c2bc 6297 ccbd
000003a0: f5b9 4e3d be9c 593d 8027 0b3c f03a 8cbd
000003b0: 1932 6e3b 7ccb 20bc f637 98bd b30e b9bd
000003c0: 59a6 9cbd 7c43 a5bd d7bf 2bbd dc37 133c
000003d0: 774c 963d 29ea 4cbd 13f3 12bd c676 e1bd
000003e0: 8b10 abbd f3b1 1cbc af99 a0bd cc49 f23d
000003f0: 9524 353e ccf0 193e 5943 173e 0b0a 063d
0.04711193 0.102264635 0.05582279 0.11211422 0.1323944 0.107006796 0.106487304 0.049469005
0.0404175 0.107846156 0.053472437 0.052539226 0.04055774 -0.016200306 0.06040463 0.07584068
0.066908225 0.046856154 0.029204655 -0.011468909 0.02582708 0.113857694 0.05000144 0.07070475
0.06469646 0.019853694 0.041204173 -0.0063736592 0.077240646 0.04450186 0.050895784 0.039757658
0.099532396 0.004912154 0.045978427 0.0014750424 0.08294169 0.041422516 0.0146898 0.031444095
-0.05031888 -0.029490441 -0.028718365 0.053951543 -0.033405345 0.033768095 -0.058355812 -0.048981555
-0.008007134 0.0064188605 0.029923169 0.066304594 0.007555672 0.028825862 -0.021771865 0.030507715
0.12523253 0.13746981 0.032225512 0.078920975 0.077582836 0.009776954 0.082097374 0.008664642
0.006857458 -0.009222017 -0.0007250428 -0.0427672 -0.017086737 0.0018482475 0.070711866 0.010971308
0.084747925 -0.022528248 0.053998195 0.017659381 0.06751738 -0.058223817 0.03794226 -0.10573376
-0.008117131 -0.083133064 0.03129354 -0.082167715 -0.06488945 0.089096956 0.009086808 -0.014989733
0.041654304 -0.06218995 0.009022833 0.06872198 0.012905012 0.0767634 -0.07164716 0.08629301
0.08001331 0.12021653 -0.039540302 0.012096484 0.0067941193 0.0017549813 -0.09944619 -0.00586858
-0.060561065 -0.024651887 -0.12554002 -0.08686136 -0.019727621 -0.06090255 0.062213317 -0.06634621
0.003176636 -0.033151984 -0.041447278 0.08173433 0.07121365 0.08486089 0.04183547 0.06511649
0.05811063 0.019423816 -0.06114661 -0.05666501 -0.05633318 0.0076889712 -0.06416682 0.053716455
-0.078756094 -0.10214018 -0.05472564 0.019587772 -0.11916393 -0.05017172 -0.13669293 0.07959723
0.097958356 -0.009486328 -0.02647659 -0.08365822 0.046075765 0.0051112887 0.021987824 0.123698175
-0.048628736 0.026777608 0.09879504 0.01213774 -0.045036223 0.03877727 -0.04012984 -0.034069166
-0.0499523 -0.03919595 -0.040411845 -0.030668987 -0.03272488 -0.045999043 -0.039153088 -0.054481458
0.05826491 0.07162769 0.05362672 0.0012653518 0.024621243 0.060642138 0.034578934 0.06547695
0.015974259 0.050339628 0.04338004 0.072642826 0.05384869 -0.00034201844 0.0211495 -0.015149735
-0.014327425 -0.020646699 -0.018290907 -0.019043855 -0.03042551 -0.024500197 -0.027988296 -0.026740955
-0.028818099 -0.032520533 -0.049667627 -0.03261812 0.006222987 -0.028764369 -0.03847249 0.025002196
-0.03706038 0.028044602 -0.0068966276 -0.043191962 -0.047134146 0.016826736 -0.040942263 0.006430391
-0.06890621 -0.05931464 -0.074803 -0.05897978 -0.07690981 -0.06894903 -0.07080962 -0.07345583
-0.06192474 -0.07078948 0.041480053 0.038462996 0.03228945 0.063925624 0.0012881075 -0.029628867
-0.034165062 0.027908739 0.06793046 0.06859043 0.017613789 0.0514076 -0.046293978 0.072239146
0.0272777 -0.121049404 0.02562517 -0.074982375 0.05740299 0.040376056 -0.023691272 -0.099898115
0.05047031 0.053127997 0.008493304 -0.06847179 0.0036345778 -0.009814139 -0.07432549 -0.09036007
-0.07648916 -0.08069512 -0.041931 0.008985486 0.07338803 -0.050028 -0.035876345 -0.11008982
-0.08352765 -0.009563911 -0.07841813 0.11830482 0.17689736 0.15033263 0.14771785 0.03272442

conv_layer5x5.bias f4 [8]
00000000: 97c6 f3bc 4843 b83d ef71 b23b 5ca4 cabd
00000010: a39b 58bc 04f3 21bd 2849 b8ba 35f4 9f38
-0.029757781 0.08997208 0.005445711 -0.0989463 -0.0132207 -0.0395384 -0.0014059888 7.627198e-05

conv_layer3x3_1.weight f4 [12, 12, 3, 3]
00000000: c2ae fd3d 0e07 3c3c 20d4 153d ec5c a43d
00000010: 7be9 5a3c 88fb 1d3d 5635 ad3d 1304 81bc
00000020: 22e5 9cbd 498c c43d 1b43 ba3c 6525 d7bd
00000030: da89 153e 364d b7bc c178 09bd 8560 313e
00000040: 5152 713d 6f2b 11be 549a b3bd 9c6d aabc
00000050: 7507 9fbd da23 493d 3e6d 3ebc 7ff2 48bc
00000060: 8461 123d 112a 923c 92d5 1abd da4a fb3d
00000070: aeca ef3c a0f1 073e 6fe9 a3bd 0da0 f4bb
00000080: d8be 733d 3b21 0d3d cd48 9abb ec1f 723d
00000090: eee8 b23d b4cc 0cbd fa4d 53bd 23c4 033e
000000a0: 0222 4abd 6a75 1ebd da5f 7b3e 24b8 993d
000000b0: c799 603d 9d3e 62bc 42a1 8fbb ac9b b53c
000000c0: 9b40 f73c faa2 1b3d a134 e83b fbf8 01bc
000000d0: fa7d b83a 2251 42bd 9fa3 a2bd 0abe 68bd
000000e0: d37f 78bc e9f6 22bc 387d 99bd 427c 9e3c
000000f0: a158 5d3d d2ab 063d 2f73 a1bd d148 e23c
00000100: a03b e33b d12b ba3d 6da9 7b3d 8ea5 3a3d
00000110: 5e56 eb3d 55da 073e 5468 7e3d 7020 1d3e
00000120: da57 833d 37f9 363d b6af 88bd bf26 d33c
00000130: 33fc 8f3c 26e7 ea3b 4e76 203d 61c4 4f3d
00000140: 74e2 42bd dc43 8abd f9ab 2bbd fee7 5abd
00000150: abe2 a8bd 5901 3ebd e994 eabd 5e67 173d
00000160: 1510 263d 8ca5 b53d ff44 8d3d 93ec 41bd
00000170: 7faa 913d 9407 19be 1b09 16be 8a9e 28be
00000180: 2751 94bc 9ad2 74bd a425 d2bd 0a4e 74bd
00000190: e4de 193d 136c 773c 32c6 dd3c 0609 ea3c
000001a0: 37c0 083d 19c7 883d 418c 393d bb69 193d
000001b0: cf87 04be 3336 2bbd 9854 c43c 8418 003e
000001c0: 6fdb 893d f2fc 2d3d fc2c b9bd e03a 24be
000001d0: 88b0 67be cfa2 3b3e 24a1 3e3e 64a4 093e
000001e0: a7b4 b53d 45b6 08bd a559 f6bc f648 9c3c
000001f0: 26ba fdbd c286 babd 466a 8abd 95e6 0cbc
00000200: 5654 f73b f3cc 32be 373c e0bd 5c29 25bd
00000210: dc09 883c f749 213d 2128 18bd fd0e a63c
00000220: bf53 64bd 7684 59bd 67dc 0cbe e2df 31bd
00000230: 3726 16bd cd53 85bd 8035 0e3d 8cf3 593d
00000240: d17b e03d 6b8f ac3c 3768 90bc 5d32 54be
00000250: fafc 33be a629 e9bc 3809 c3bd f330 75bd
00000260: 6299 31be 2948 793d 1172 213d 1d21 db3d
00000270: ea09 6bbd 5f46 bcbb bd03 90bc 309e c63d
00000280: d967 ba3d 3ad9 833c 3ca6 2c3e ec06 31ba
00000290: 7889 f8bd 67c6 713e 7717 e43d e0c2 a83d
000002a0: 6251 2ebe e7e2 17be 5c61 67be 6220 ba3d
000002b0: ce2c 55bc 08c8 41bc 539d 1f3d 92fb 513e
000002c0: f25a 0c3e 5721 31be deb3 c0bd ecb8 0bbe
000002d0: b5ee aa3d c80b d63c baef a03d a53f 0e3d
000002e0: 2c28 813b c079 bf3d 1dee 023d 706e e3bd
000002f0: 2e31 b6bd 8f76 f43d fb40 313d 850a 42bd
00000300: f50d e83d 35ab 763e b2e7 ea3d 8230 39be
00000310: 0748 ffbd 1cea 45be ec4a b63c 1823 95bc
00000320: 0b8a e5bc ccb2 adbc cc47 e6bb a2f2 1d3e
00000330: 672f 40bd bae8 36bc deac a1bd eb2c 9cbd
00000340: cd0e 34bd 6bd1 88bd 1f12 893d 54df 863d
00000350: d02a a0bc 0301 36bc 463d bdbd 33ba 00be
00000360: 73e6 cc3d 8980 013e 5960 09bd 6129 c33c
00000370: 8a85 d23d f937 2e3d 1c0a 513c 3524 013d
00000380: d80b a8bc ad4b 5ebd 25a1 ffbd af1d f13b
00000390: 8640 1dbe b8ef 7dbd 35e9 583c 0dab 73bd
000003a0: 3218 2d3c a59e 393c 83bc 693d 9d62 2c3e
000003b0: 8d7d 35bc 9fd4 aa3b 9d54 f13b a6ed 79bb
000003c0: 203c 4c3d 6f7c 03bc 8444 753d 8cc8 963c
000003d0: e5f6 353d 2b17 6f3c 0a70 02bd d7b2 dabd
000003e0: 3145 713d 4fd7 00bd e069 a6bd d04d 14bd
000003f0: e3e6 823d 637b dc3d 77e2 42bc 69f9 2cbd
0.12386848 0.011476291 0.03657925 0.08025536 0.01336133 0.038569957 0.08457439 -0.015749013
-0.07660891 0.0959707 0.022737077 -0.10505179 0.14603367 -0.022375684 -0.033562426 0.17321976
0.058916394 -0.14176725 -0.0876967 -0.020804219 -0.07765094 0.049106456 -0.011622725 -0.012264847
0.03573753 0.017842324 -0.037801333 0.12270136 0.02927145 0.13275766 -0.08003508 -0.0074653686
0.059508175 0.03445552 -0.0047083856 0.059112474 0.08735834 -0.034374908 -0.051588036 0.12867789
-0.04934884 -0.038686194 0.24548283 0.07505825 0.054834154 -0.0138088735 -0.004383237 0.022168957
0.030182173 0.037997223 0.007086352 -0.007932897 0.001407563 -0.047440656 -0.079413645 -0.05682186
-0.015167194 -0.009946563 -0.07494587 0.01934636 0.0540396 0.032878704 -0.07883298 0.027622612
0.006934598 0.090903886 0.061440874 0.04556804 0.114910826 0.13266881 0.062111214 0.15344405
0.06413241 0.044671264 -0.06674139 0.025775312 0.017576313 0.0071686683 0.039175324 0.05072439
-0.047579244 -0.067512244 -0.041912053 -0.0534439 -0.082463585 -0.046388004 -0.114541836 0.036963813
0.04054268 0.08869466 0.068979256 -0.047344755 0.07112598 -0.14944297 -0.14651911 -0.16466728
-0.018105103 -0.059771158 -0.10261086 -0.059644736 0.03756608 0.0151014505 0.027072046 0.028568756
0.033386435 0.066786 0.045299772 0.037454348 -0.12942432 -0.041799735 0.023966119 0.12509352
0.06731307 0.042477556 -0.09041783 -0.16038084 -0.22625935 0.18323825 0.18616158 0.13441616
0.08872347 -0.03337695 -0.030072043 0.01907776 -0.123890206 -0.09107734 -0.06758551 -0.008599897
0.0075478954 -0.17460994 -0.10948985 -0.040322646 0.016606264 0.03937718 -0.037147645 0.020270819
-0.05574393 -0.05310484 -0.13755952 -0.043426402 -0.03665754 -0.06510124 0.03471899 0.05321078
0.10961116 0.02106448 -0.017627819 -0.20722337 -0.17576972 -0.028462242 -0.09523243 -0.059861135
-0.17343667 0.060859833 0.039415423 0.10699675 -0.0573825 -0.0057456936 -0.017579908 0.096981406
0.091018386 0.016094793 0.16860288 -0.00067530456 -0.12135595 0.2361084 0.11137288 0.082402945
-0.17023233 -0.1483265 -0.22595733 0.09088208 -0.013011171 -0.011827476 0.038968395 0.20506123
0.13706568 -0.17297874 -0.09409307 -0.13644761 0.08346311 0.026128665 0.07858224 0.034728665
0.0039415564 0.09349394 0.031965364 -0.11105049 -0.08896099 0.11936676 0.04327486 -0.047373313
0.11330787 0.24088748 0.114699736 -0.1808491 -0.1246491 -0.19327587 0.022252522 -0.01820521
-0.028019926 -0.021203421 -0.007027602 0.15424588 -0.046920206 -0.011163885 -0.078943 -0.07625755
-0.043959428 -0.06680568 0.066929094 0.06585565 -0.019551665 -0.01110864 -0.092402026 -0.1257103
0.10004892 0.12646689 -0.03353915 0.023823442 0.10279377 0.04253385 0.012758758 0.03152867
-0.02051346 -0.05427139 -0.12481908 0.007358275 -0.15356645 -0.06199619 0.013239195 -0.0594893
0.010564851 0.011329328 0.057064544 0.16834493 -0.011077297 0.0052133347 0.007364823 -0.0038136034
0.049862027 -0.008025273 0.059879795 0.018406175 0.04442491 0.014592926 -0.03184513 -0.10678642
0.058903877 -0.031455334 -0.08125663 -0.03620702 0.063916944 0.10765722 -0.011894814 -0.042230044

conv_layer3x3_1.bias f4 [12]
00000000: 382a 713d 9d98 173e b182 013d 3057 033e
00000010: 527c f03d cb1d 49bd dda5 403d 7162 283d
00000020: 17fb fdbd c0f2 29bd 04fd 43bd c1e2 71bd
0.058878154 0.14804311 0.031618778 0.12826228 0.11742462 -0.04910068 0.04703318 0.041109506
-0.12401407 -0.04149127 -0.047848716 -0.05905414

conv_layer3x3_2.weight f4 [16, 16, 3, 3]
00000000: 601b a83d 0839 e33d 98c0 b63b 9f37 963d
00000010: b443 2c3d dcc3 833d 34b9 ec3d b01e 743d
00000020: 68f1 433d fb3c 583d f70e e23d 7546 423d
00000030: fcd9 ae3c a92d 853d 84a8 e0bc 8715 863d
00000040: ee6c f53d 0352 733d d01b 553d 8689 9bbb
00000050: a460 683b ea82 943d e956 14bb 1423 11bc
00000060: 0ff8 c23c 6b88 1e3d 06b8 333d cc55 c93d
00000070: 65b9 f33d 599a 3fbd faef a33d a860 093c
00000080: 6fba 453d fe8b 7f3d a087 e63d 5685 963c
00000090: d80c 2f3c ab2c 463c ba6d cb3c 5f8b b33b
000000a0: 5128 633d fe09 023d 8795 163c 142b 953b
000000b0: d3ca c33c 8498 57bc 7d9b 9f3c 728d b73c
000000c0: 3ece 9e3b 8c3d 12bb e467 a2bc acfb 83bc
000000d0: 7a4f 2d3c 1817 8bba d498 e3bb fac2 cc3c
000000e0: eadb 9a3d 7163 c43c 97cb 07bc 0612 4a3d
000000f0: a3ca 64bc d0fd 6abd 10fd f43c 74d8 b8bb
00000100: 7e04 3cbc 5491 d83d 6aa3 e43b 7f84 8d3d
00000110: 5105 f63c 1ecb a13d aa2a 053c 016f f43c
00000120: 53e4 373d 6475 823c 789e 533d 0fee c93c
00000130: 3261 2d3a ce60 edba 0939 2e3b 1c8a 283c
00000140: dc15 433d 6c35 c43d d950 9a3d 04e1 b73c
00000150: 5ff7 e43c 87b5 473b 351f 2d3d 9bbb 9e3d
00000160: 6f48 093d f121 b53c 725c 703b 2dc8 32bc
00000170: bee8 8dbc 1ade 963b 02f7 8a3c 443a a53c
00000180: 0a54 3d3c 2eb4 d03b a1e2 753b aa32 9e3d
00000190: 7781 113e 62c0 e83c e5d4 fabc c76c e4bd
000001a0: d251 49bd eabb 22bd 0160 bcbc c9ef a0bc
000001b0: 2198 05bd 6382 1dbd 4b71 2b3d 022f 83ba
000001c0: d7e4 4b3d 6d85 153d d9f8 e63c 8400 d239
000001d0: bbbd 743c c6f3 f73c c919 2cbd 28bc c3bc
000001e0: b108 9dbd 87f6 1a3d da74 b5bd 29b6 efbb
000001f0: d7a9 803d 96be 0dbd 331b 033d 4cfb 153d
00000200: d1f8 a83c 76cc fabc ea8c a8bc ae30 833b
00000210: 1041 b7bd 7cff 47bd 5642 51bd 779f b1bc
00000220: cd5e e7bc 2870 d238 f56a 4f3d fc2e 8b3d
00000230: 284d c03c e0d1 b23c 90de 0abc e419 e53c
00000240: 751e a63c b033 1d3d 4624 b83c 0206 763d
00000250: 0a8b 06bd 143f 733c 52da c4bc 5d8f 253b
00000260: bc65 b43d bb02 1abd 9f0f 323d 1953 823c
00000270: 665a 3fbd 2b71 cdbc 1050 80bd e2a8 5dbc
00000280: 1197 d43d 5af8 933d b0df bb3c d299 76bd
00000290: a262 b23c 15f7 013e 10bb 963d f463 cfbc
000002a0: d274 34bd 46f0 e0bc 7021 c43d 9463 de3c
000002b0: b431 54bc f6da d5bb 61a1 9f3c 78c1 c5bc
000002c0: 8fae 0abd 070d fcbc d6ab 5e3c 57bc 5e3c
000002d0: 1689 06bd a072 d13c a1ad d73c 6a11 debb
000002e0: 5e17 e33c 9efc 253d 7180 30bd 2611 89bc
000002f0: 5c28 dcbc 8721 203b ca7b b23d a7e4 4a3b
00000300: a9f6 723c ecfa 623d f421 96bd 8530 2a3d
00000310: 8c53 6e3d 72a7 953d 4f2e 853b a4bf 933d
00000320: f0f3 b93d ea95 34bc 92b0 4fbc bea6 3b3d
00000330: 6896 53bd 4d30 e33b 22b0 433c 371c c7bd
00000340: 2202 b13d 8fdf f63d 862d 0bbd 2ab0 a73c
00000350: 8171 c43d 9125 3fbd 1efc a4bc fe70 423a
00000360: 941e ac3c d4f5 373c 2816 80bc 2bdd 6e3d
00000370: fc6e cabc 891d f3bd 4692 6dbc 7986 b83c
00000380: ce6a 1e3d 425a 463c a4a4 79bd 8f1c e6bc
00000390: 3fb7 843c c977 88bc 0d2f c9bb 3099 4abd
000003a0: c964 f23c 7e06 7d3d 1f36 5fba 1bab 33bc
000003b0: fa0d 05bc 98cf edbc d158 eabc 6b55 e7bc
000003c0: 3962 03bd c5b1 b5bc a02a 013c 787f a13c
000003d0: f6b3 13bc c4f6 9cbd 728b 1d3d cbb3 9d3c
000003e0: 2b3d d2bd e684 553c b170 d0bb 5336 233d
000003f0: d7b7 4c3c 74a0 8f3d 9a87 9d3c 1ea4 193d
0.08208346 0.11094862 0.005577158 0.07334828 0.042056754 0.064338416 0.11558762 0.05959958
0.047837645 0.05279253 0.110380106 0.047430474 0.021344177 0.065028496 -0.027424105 0.06547075
0.11983667 0.059404384 0.052028477 -0.0047466187 0.0035457993 0.072515324 -0.002263481 -0.008858461
0.023799924 0.038704317 0.04387667 0.098308176 0.119005956 -0.046778057 0.08004756 0.008384861
0.0482735 0.062389366 0.11256337 0.018374126 0.0106842145 0.012095611 0.024832595 0.005479261
0.05545837 0.03174781 0.0091909235 0.0045522545 0.023900425 -0.013158921 0.019483322 0.022406314
0.0048463633 -0.0022314517 -0.01982493 -0.016111217 0.010578031 -0.0010611741 -0.0069457088 0.024995316
0.075614765 0.023973199 -0.008288286 0.049333595 -0.013964328 -0.05737096 0.029905826 -0.0056410376
-0.01147568 0.10574594 0.0069774883 0.06910037 0.030031832 0.0790007 0.008127848 0.029838087
0.04489548 0.015925117 0.0516648 0.024649648 0.00066139095 -0.0018110515 0.0026584289 0.010286834
0.04762827 0.09580502 0.07534952 0.022446163 0.027949987 0.003047319 0.04226609 0.07750627
0.033516344 0.022110911 0.0036676195 -0.010911983 -0.017322894 0.0046041133 0.016963486 0.020169385
0.011555681 0.0063691353 0.0037519115 0.07724507 0.14209543 0.028412048 -0.030619094 -0.1115356
-0.049150296 -0.03972999 -0.022994997 -0.019645588 -0.032615785 -0.038454425 0.04185609 -0.0010008516
0.049778786 0.036504198 0.028194832 0.00040054705 0.014937813 0.030267607 -0.04201678 -0.02389343
-0.076676734 0.037832763 -0.08860178 -0.0073154164 0.062823944 -0.034605585 0.03200836 0.03661661
0.020626457 -0.030615073 -0.020575006 0.004003606 -0.089479566 -0.048827633 -0.051088654 -0.021682484
-0.028243447 0.00010034471 0.05063911 0.06796071 0.023474291 0.021828592 -0.008475915 0.027966447
0.020278195 0.03837937 0.022478234 0.060064323 -0.03284744 0.014846582 -0.024029884 0.0025262453
0.08808467 -0.03760026 0.04347193 0.015908765 -0.04671707 -0.025078377 -0.06265271 -0.013529034
0.10380376 0.07225104 0.022933811 -0.06020529 0.021775547 0.1269191 0.07359898 -0.025316216
-0.04405672 -0.027458321 0.0957669 0.027147092 -0.012951303 -0.0065263463 0.019486131 -0.024140105
-0.03385788 -0.03076793 0.013590774 0.013594708 -0.03284558 0.025567353 0.02632791 -0.0067769783
0.027721103 0.040524118 -0.04309124 -0.01673181 -0.026874714 0.0024434046 0.08715017 0.0030959041
0.014829316 0.05541508 -0.07330695 0.041550178 0.058185145 0.07307328 0.0040643583 0.07214287
0.090797305 -0.01102207 -0.012676375 0.045813315 -0.05165711 0.006933248 0.011943849 -0.097221784
0.08642985 0.12054359 -0.03397896 0.020469744 0.09591962 -0.046666685 -0.02013975 0.000741735
0.021010675 0.011228044 -0.015635565 0.05831639 -0.024711125 -0.11870868 -0.014500206 0.022525059
0.038676076 0.01210648 -0.06094803 -0.02808979 0.01620066 -0.01665868 -0.006139642 -0.049462497
0.029589074 0.06177377 -0.00085148396 -0.010966088 -0.008121008 -0.029029652 -0.028606804 -0.028238973
-0.032076094 -0.022179494 0.007883698 0.019714102 -0.009015074 -0.07664254 0.038463064 0.019250771
-0.10265573 0.013032174 -0.00636109 0.03984673 0.012495003 0.07013026 0.019229699 0.03751003

conv_layer3x3_2.bias f4 [16]
00000000: 6daf 07bd a601 f8bd b735 f1bd 2744 91bd
00000010: ece0 a4bd 9a11 7abb aa2a 03bc b601 02bc
00000020: 3e42 90bd d514 8abd 97cb 0bbc 2b7e 37bc
00000030: 9b3b f4bc 0e14 d7bd d5d2 32bd 539b b53c
-0.033126283 -0.121096894 -0.117778234 -0.07093077 -0.08050713 -0.0038157464 -0.008005777 -0.007934978
-0.07043885 -0.06742255 -0.008532426 -0.011199514 -0.029813578 -0.10501872 -0.043658096 0.02216879

conv_layer3x3_3.weight f4 [8, 8, 3, 3]
00000000: 8361 92bd cbbe 533e edc4 3ebd c685 943d
00000010: d425 d73d 7a58 8abc d4ea 1cbe 956d 22be
00000020: 0387 ac3c c99b d6bd c6ea 273e 7ccf 8cbd
00000030: 928f c03c 1f29 bc3d c6bf 0fbd 8577 1fbe
00000040: 175b f4bd 6b9f 23bd 52e8 f63d 3127 643c
00000050: 7d8f 8c3d 6e2c ac3c b076 83bd e6d1 453c
00000060: 4b8a bf3a 24bc fcbc c762 203d 3233 2bbd
00000070: 4924 32bd 1975 88ba 3822 96bc e0d7 3fbd
00000080: 283e b6bb 9d76 b73b 18b6 643c 020f ef3c
00000090: 474b fbbd 500a 32be 3929 22be 27db 903d
000000a0: 9160 9a3d 3127 0fbc 96c2 03be 35d7 adbd
000000b0: 02a4 46bd 1f01 6dbc 98bf b3bd 1f19 34bc
000000c0: aef7 5abd 38ae cd3b 7e76 213d 85ca 213d
000000d0: 0a8e b23d d843 b8bc 808b c0bb b6b6 3e3e
000000e0: 2fb4 3abd 8474 6bbc ab37 1b3e 5dc7 93bc
000000f0: 6eaa 0abe a015 8f3d 342c 663d 7359 733c
00000100: 9f60 1e3e 52f3 9a3d ab14 a73c a16e 0bbd
00000110: 3421 9e3d 1327 0d3d 7186 4b3c 604c 8cbc
00000120: 2feb d23c 6b42 873d d96d 11be 30c9 9a3d
00000130: 8de4 673d 8c6d 39bc d30d 88bd 5028 f73b
00000140: 8a08 b63d fcc6 cb3d c5f2 803d 8158 10be
00000150: 4b01 8e3d fc22 263e 51a2 db3c 33e6 09bd
00000160: 8178 13bd 6b01 ac3d 94fc 25bd d3cf ce3d
00000170: f5fc 773d 1627 58bd 110f b5bc 2b0b 293e
00000180: 02e9 9abd 8e6f c23c 0cfb 3fbd 42e3 743d
00000190: 88f4 06bd 45d8 113d 858e 04bd ebae aabc
000001a0: 410f 593b 9891 39bd c605 35bc 8a22 c7bc
000001b0: 5fda 88bd 058b f8bd 54fe cebd 915e 603d
000001c0: 2bb2 343e 8c75 c23d d4a0 a23d ab34 223d
000001d0: 7ed0 ac3c 6df5 c2bc 2541 9b3d 8ec1 cfbc
000001e0: 18d0 22be cab1 3b3d af21 c73d e6aa e1bc
000001f0: 5ffa 8cbd 6379 94bc 0133 1fbd 8e70 c8bc
00000200: 85f7 0dbd e1f5 54bd 7a5a 48bd 969f f1bd
00000210: 829d 9cbd 6ddf 9bbc 9420 543c 746e bf3d
00000220: 8cdc 3b3d 8a49 a3bb 77cd d4bd c866 9dbd
00000230: 5342 7e3d 094b 07be e749 59bd aff3 a8bd
00000240: a3e2 6c3d b172 be3d de93 cc3d 5271 fe3d
00000250: 8b4a 963d f948 3e3d 3bd0 c43d 6b66 323c
00000260: f018 b8bb 0151 3fbe 479e ea3b 4f45 81bd
00000270: ef53 1abd 651b dc3d abba 933d c155 d2bd
00000280: 5efe f1bc bfa0 a13d 95dc 333e 659a 073e
00000290: 7542 6e3e 7fc6 023e c6ab 2b3e 499e 863c
000002a0: ed3d aebc 484b afbd 84c1 3e3b 789c 853c
000002b0: b631 573d 90f8 29bd f625 913a 9fe8 3f3d
000002c0: 93f5 673b b571 ad3c db53 82bc 14b3 ed38
000002d0: 4749 1a3d 90b4 77bc 24ac 1c3e ad44 913c
000002e0: 6752 53bd 0a1b 69bd 8049 2dbe f19f 11be
000002f0: bbe0 c53d 6ca4 f6bd fa10 cdbd b170 9bbd
00000300: 2970 eabd b71a 84bd 50c3 ccbd 13c9 8ebc
00000310: 9449 05bd 23fd 203d 5ef8 21be a6c8 813d
00000320: b90a 4e3d 1156 78bd 24d7 323e 7496 7f3e
00000330: 13d0 163d 376d a2bd 4968 063e c09a 96bd
00000340: a122 e2bd d941 c1bd c9dd a93d c57c 993d
00000350: 54aa 83bd ee24 ab3d fe00 d63c 0c6d 93bd
00000360: f0f5 f1bd 7b5f 9bbd d246 bfbd 9b52 89bc
00000370: 393f 093e 7339 b13c cc1a 233d e0f5 d03d
00000380: 2d9f c8bc 4d01 26bd 6832 903c 6969 0b3e
00000390: 5c67 0abe 6c06 963c e03e 3abc bd44 2b3d
000003a0: bc8c f53a 6c05 d33c f40f 32bd 25e1 0dbd
000003b0: 5bb8 babc 7529 10be bddf e1bd 53cd 14be
000003c0: a7b8 7a3d bcc7 f13d 024c 203d 7608 a8bc
000003d0: a215 99bc e320 bf3c 7973 f3bc 7a12 efbc
000003e0: 9c9d 113d 3095 743c daac 07bd 4495 bbbc
000003f0: 2124 c2bd 188b e63b b819 0abe ce17 13be
-0.07147505 0.2067825 -0.04657452 0.07252078 0.10505262 -0.016887892 -0.15323955 -0.15862115
0.021060472 -0.104789324 0.16398153 -0.06875512 0.02350596 0.09187531 -0.035095 -0.15572937
-0.119314365 -0.039946955 0.1205603 0.01392536 0.06863306 0.02101728 -0.06419122 0.0120739695
0.0014613358 -0.030851431 0.0391567 -0.04179687 -0.043491635 -0.0010410874 -0.018326864 -0.046836734
-0.005561609 0.0055988566 0.01395943 0.029181961 -0.122702174 -0.17386746 -0.15836038 0.0707305
0.0753795 -0.008737371 -0.12867197 -0.08488313 -0.048496254 -0.014465599 -0.08776778 -0.010992317
-0.053458862 0.006276872 0.039419644 0.03949978 0.08718498 -0.022493288 -0.0058760047 0.18624386
-0.045581993 -0.014371041 0.15157954 -0.0180394 -0.13541576 0.069865465 0.0561945 0.014852869
0.15466546 0.07565941 0.020395597 -0.03404105 0.07721177 0.034461092 0.01242219 -0.017126262
0.02574691 0.06604465 -0.1420206 0.07557905 0.056614447 -0.011317622 -0.06643262 0.0075426474
0.088883474 0.09950063 0.062963046 -0.14096262 0.0693384 0.16224283 0.026810797 -0.0336668
-0.036003593 0.08398708 -0.04052408 0.10098233 0.060543973 -0.05277165 -0.02210191 0.16508166
-0.07563974 0.023734834 -0.046870276 0.059787042 -0.032948047 0.03560664 -0.03236248 -0.02083536
0.0033120664 -0.045304865 -0.01104874 -0.024308462 -0.06682276 -0.12135891 -0.10107103 0.054777686
0.1764609 0.094950765 0.07940832 0.03960101 0.02109551 -0.023798669 0.07580785 -0.025360849
-0.15899694 0.04582385 0.097232215 -0.027547311 -0.06883692 -0.018124288 -0.038867 -0.024467733
-0.03465988 -0.0519923 -0.04891441 -0.11798017 -0.0764723 -0.019027436 0.01294722 0.09347239
0.045864627 -0.004983132 -0.10390752 -0.076856196 0.06207497 -0.13212217 -0.053048994 -0.08249604
0.057833325 0.092992194 0.09989141 0.12423958 0.07338437 0.04645631 0.09610029 0.010888676
-0.005618207 -0.18683244 0.0071599814 -0.06312048 -0.0376777 0.107474126 0.072133385 -0.102702625
-0.029540237 0.07891988 0.17564614 0.1324249 0.23267539 0.12771033 0.16764745 0.016432898
-0.021269763 -0.08559281 0.0029107044 0.016309962 0.052537642 -0.041496813 0.0011073935 0.046852704
0.0035394176 0.021172384 -0.015909126 0.000113343965 0.03766754 -0.015118733 0.15300041 0.017732942
-0.051592257 -0.056910552 -0.1692257 -0.14221169 0.096620046 -0.1204308 -0.10013004 -0.075898536
-0.11447174 -0.06450408 -0.099981904 -0.017429864 -0.032540873 0.03930391 -0.15817401 0.06337099
0.050303195 -0.060628954 0.17464882 0.24959737 0.03681953 -0.07930987 0.13125719 -0.07353735
-0.11041761 -0.094363876 0.08294255 0.07494501 -0.06428972 0.08356653 0.02612352 -0.071985334
-0.11814487 -0.07586571 -0.0933968 -0.016763022 0.13403024 0.02163384 0.039820477 0.10203147
-0.024489963 -0.040528584 0.01760216 0.1361443 -0.13515991 0.018313609 -0.01136753 0.0418136
0.0018733959 0.025759421 -0.043472245 -0.034638543 -0.022792986 -0.14078315 -0.11029003 -0.1453145
0.061211254 0.118056744 0.039134987 -0.020511847 -0.018687073 0.023331111 -0.029718148 -0.029183615
0.0355507 0.014928147 -0.03312383 -0.022898324 -0.09479547 0.0070356242 -0.13486373 -0.1436455

conv_layer3x3_3.bias f4 [8]
00000000: 40b1 f5bc a01c a4bc 59ee 023d e19b c3bc
00000010: eaa8 61bd 3d34 303d f933 04bd e283 3d3d
-0.029991746 -0.02003318 0.031965587 -0.02387804 -0.05509273 0.04301857 -0.032276127 0.04626835
