thesiscnn_model.pth (torch, 58017 bytes, 42 tensors)

bn_1.weight f4 [8]
0	0x3f8639cc	1.0486388
1	0x3f766c4a	0.96258986
2	0x3f7f3179	0.99684864
3	0x3f7b1e1f	0.98092836
4	0x3f73e84d	0.9527634
5	0x3f8460b4	1.0342011
6	0x3f66112b	0.89869946
7	0x3f84b64e	1.0368135

bn_1.bias f4 [8]
0	0x3bb16b3c	0.0054143947
1	0x3bd6e7a6	0.0065583764
2	0x3c5da889	0.013528951
3	0x3c4af245	0.012386863
4	0x3c4e4df9	0.012591832
5	0xbb3d5123	-0.0028887473
6	0x3b95f9e6	0.0045769094
7	0x3cba894b	0.022770545

bn_1.running_mean f4 [8]
0	0x3da32670	0.07966316
1	0x3e4b7bf0	0.19871497
2	0x3e548d84	0.20757109
3	0x3eb01448	0.34390473
4	0x3e810153	0.25196323
5	0x3e0d78fd	0.13815685
6	0x3e8400c6	0.2578184
7	0x3de31e8f	0.11089813

bn_1.running_var f4 [8]
0	0x3d3668fd	0.04453372
1	0x3e77ce43	0.24199776
2	0x3da01479	0.07816405
3	0x3f483115	0.78199893
4	0x3eed086b	0.46295485
5	0x3e4f487d	0.20242496
6	0x3e09b1eb	0.13446777
7	0x3da42c6a	0.08016284

bn_2.weight f4 [12]
0	0x3f809885	1.0046545
1	0x3f7904bc	0.9727285
2	0x3f7a4fe8	0.9777818
3	0x3f7d2c18	0.98895407
4	0x3f724345	0.94633895
5	0x3f75c5a6	0.9600471
6	0x3f731c22	0.949648
7	0x3f7910be	0.9729117
8	0x3f851c04	1.0399175
9	0x3f6e02c7	0.9297299
10	0x3f71e9a4	0.9449713
11	0x3f79e909	0.9762121

bn_2.bias f4 [12]
0	0x3d69103d	0.05690025
1	0xb9dbe8d2	-0.000419444
2	0x3d0bd854	0.034141853
3	0xbd155e94	-0.03646715
4	0x3c94ea2b	0.018178066
5	0x3c66a078	0.014076345
6	0x3c70796f	0.0146773895
7	0xbb802a7d	-0.003911315
8	0x3b94b778	0.0045384727
9	0x3add8d57	0.0016903084
10	0x3d0ae420	0.033908963
11	0xba383e2d	-0.0007028308

bn_2.running_mean f4 [12]
0	0x3e30dbc3	0.17271332
1	0x3e4ef672	0.20211199
2	0x3ee11eb1	0.43968728
3	0x3e21c375	0.15797217
4	0x3eb0ab85	0.3450586
5	0x3da6aa7c	0.08137986
6	0x3dbd907f	0.09256076
7	0x3e332644	0.17495066
8	0x3e7c0396	0.24610743
9	0x3e56969d	0.20955892
10	0x3e52ba53	0.2057889
11	0x3e63eaff	0.22257613

bn_2.running_var f4 [12]
0	0x3e1710b9	0.14752473
1	0x3e441946	0.19150266
2	0x3f485179	0.7824932
3	0x3df014f4	0.117227465
4	0x3ebcf58d	0.3690609
5	0x3d712c6f	0.058880266
6	0x3da2d29c	0.07950327
7	0x3d93d5ec	0.07218537
8	0x3e86cc8b	0.2632793
9	0x3e9186be	0.28423113
10	0x3e59087b	0.21194641
11	0x3e322949	0.17398562

bn_3.weight f4 [16]
0	0x3f678162	0.904318
1	0x3f6e73d9	0.9314552
2	0x3f81f27f	1.0152129
3	0x3f723c0e	0.94622886
4	0x3f70a144	0.9399607
5	0x3f6ca6df	0.92442125
6	0x3f6daada	0.92838824
7	0x3f7b7e7c	0.98239875
8	0x3f66d0fd	0.9016264
9	0x3f6f8c5d	0.9357355
10	0x3f6ab940	0.9168892
11	0x3f63dac5	0.8900569
12	0x3f767a3e	0.96280277
13	0x3f63b52a	0.8894831
14	0x3f6a4a42	0.9151956
15	0x3f727a4e	0.9471787

bn_3.bias f4 [16]
0	0x3cb7528e	0.022378232
1	0x3d053140	0.03251767
2	0x3cbf262a	0.023333628
3	0xbbd45228	-0.0064795204
4	0xbc142534	-0.009042073
5	0xbce56a00	-0.028004646
6	0x39ceb2a7	0.00039424488
7	0x3c6efab8	0.014586143
8	0x3d298727	0.041388657
9	0x3ccb8456	0.024843376
10	0xbcbc53bb	-0.022989145
11	0x3c841ce0	0.01612705
12	0x3ca8bec3	0.020598775
13	0x3c29476b	0.010331969
14	0x3ba038f7	0.0048896032
15	0x3a4282b5	0.00074199896

bn_3.running_mean f4 [16]
0	0x3e851769	0.25994423
1	0x3e3ee1d6	0.18640837
2	0x3e65a589	0.22426428
3	0x3eae6a90	0.34065676
4	0x3de33465	0.11093978
5	0x3de88500	0.11353493
6	0x3ec2032e	0.3789305
7	0x3e8280e0	0.2548895
8	0x3e767b75	0.24070533
9	0x3e8ffff0	0.28124952
10	0x3f42cbbe	0.76092136
11	0x3e97168d	0.29509392
12	0x3e8bc56a	0.27299052
13	0x3ecf2812	0.4046026
14	0x3e3652a5	0.17804964
15	0x3f1d344c	0.61407924

bn_3.running_var f4 [16]
0	0x3e5d07fb	0.21585076
1	0x3e38a8a2	0.18033078
2	0x3e0f12c3	0.13972001
3	0x3ef5699d	0.4793214
4	0x3db87d36	0.09008257
5	0x3d5c679d	0.05380975
6	0x3f114b0d	0.56755143
7	0x3e7507de	0.23928782
8	0x3e484fe3	0.19561724
9	0x3e948bea	0.29012996
10	0x3f99676b	1.1984686
11	0x3ed15dbc	0.40891826
12	0x3e74fe51	0.23925139
13	0x3f2f11eb	0.68386716
14	0x3e92c079	0.2866247
15	0x3fb3a0d4	1.4033456

bn1d_1.weight f4 [12]
0	0x3f800000	1.0
1	0x3f800000	1.0
2	0x3f800000	1.0
3	0x3f800000	1.0
4	0x3f800000	1.0
5	0x3f800000	1.0
6	0x3f800000	1.0
7	0x3f800000	1.0
8	0x3f800000	1.0
9	0x3f800000	1.0
10	0x3f800000	1.0
11	0x3f800000	1.0

bn1d_1.bias f4 [12]
0	0x00000000	0.0
1	0x00000000	0.0
2	0x00000000	0.0
3	0x00000000	0.0
4	0x00000000	0.0
5	0x00000000	0.0
6	0x00000000	0.0
7	0x00000000	0.0
8	0x00000000	0.0
9	0x00000000	0.0
10	0x00000000	0.0
11	0x00000000	0.0

bn1d_1.running_mean f4 [12]
0	0x00000000	0.0
1	0x00000000	0.0
2	0x00000000	0.0
3	0x00000000	0.0
4	0x00000000	0.0
5	0x00000000	0.0
6	0x00000000	0.0
7	0x00000000	0.0
8	0x00000000	0.0
9	0x00000000	0.0
10	0x00000000	0.0
11	0x00000000	0.0

bn1d_1.running_var f4 [12]
0	0x3f800000	1.0
1	0x3f800000	1.0
2	0x3f800000	1.0
3	0x3f800000	1.0
4	0x3f800000	1.0
5	0x3f800000	1.0
6	0x3f800000	1.0
7	0x3f800000	1.0
8	0x3f800000	1.0
9	0x3f800000	1.0
10	0x3f800000	1.0
11	0x3f800000	1.0

bn1d.weight f4 [64]
0	0x3f4956c3	0.7864801
1	0x3f1f3e77	0.6220469
2	0x3f060645	0.52353317
3	0x3f5e0885	0.8673175
4	0x3f539284	0.8264544
5	0x3f56e7bd	0.83947355
6	0x3f22ced5	0.6359685
7	0x3f6b53f7	0.91924995
8	0x3f376eba	0.7165333
9	0x3f1ceed1	0.61301905
10	0x3f489f7f	0.7836837
11	0x3f139669	0.5765138
12	0x3f3ffcb6	0.7499498
13	0x3f382931	0.71937853
14	0x3f33048d	0.6992882
15	0x3f26c3e5	0.6514266
16	0x3f669b11	0.9008036
17	0x3f4905e9	0.78524643
18	0x3f2a5b28	0.66545343
19	0x3f15bab1	0.58487993
20	0x3f11a2c7	0.56889004
21	0x3ef6586a	0.4811433
22	0x3f220429	0.632876
23	0x3f248d91	0.64278513
24	0x3f5daafd	0.8658903
25	0x3f402b07	0.75065655
26	0x3f35ea50	0.7106066
27	0x3f5fb93f	0.8739204
28	0x3f63a4ed	0.8892353
29	0x3f25aa33	0.6471283
30	0x3f3a97b5	0.72887737
31	0x3f1f5db8	0.6225238
32	0x3f28f977	0.66005653
33	0x3ee8f0f6	0.4549634
34	0x3f3ac179	0.72951466
35	0x3f434149	0.7627149
36	0x3f3c1326	0.7346672
37	0x3f38bcc4	0.72163033
38	0x3eea6b0c	0.45784795
39	0x3f5bb6f1	0.8582602
40	0x3efc9c12	0.49337822
41	0x3f24d4e1	0.6438733
42	0x3f48975c	0.78355956
43	0x3f21480e	0.6300057
44	0x3f270af8	0.6525111
45	0x3f216079	0.6303783
46	0x3f5850e0	0.84498405
47	0x3f3a453e	0.72761905
48	0x3f3a94e2	0.7288343
49	0x3f18243b	0.59430283
50	0x3f35ebf4	0.7106316
51	0x3f4714cd	0.77766114
52	0x3f38133e	0.7190436
53	0x3f18464b	0.5948226
54	0x3f252be4	0.64520097
55	0x3f23f215	0.6404126
56	0x3f3a74d8	0.7283454
57	0x3f50a451	0.81500727
58	0x3f518f41	0.81859213
59	0x3f1182b1	0.56840044
60	0x3f3fb3f3	0.74883956
61	0x3efc96e5	0.49333873
62	0x3f396fe9	0.72436386
63	0x3f4bb31f	0.7957019

bn1d.bias f4 [64]
0	0x3b13d6f9	0.0022558554
1	0x3ced1c9c	0.028944306
2	0x3d16e1a5	0.036836285
3	0x3d49c74d	0.049262334
4	0x3d9091d1	0.07059062
5	0x3d393014	0.045211866
6	0x3d629809	0.055320773
7	0x3d15c483	0.03656436
8	0x3d5291b0	0.05140847
9	0x3d7dae73	0.061933946
10	0x3cf67f23	0.03008992
11	0xbc4c6ecd	-0.012477589
12	0x3d478e73	0.048719835
13	0x3d6ce1e0	0.0578326
14	0xba9f12f0	-0.0012136381
15	0x3d101eed	0.035185743
16	0x3db9196f	0.09038054
17	0x3d266740	0.04062581
18	0xbc989be8	-0.01862903
19	0x3cdf92a6	0.027291607
20	0x3d57d436	0.052692614
21	0x3d9079dd	0.070544936
22	0x3d35e1be	0.044404738
23	0xbb930993	-0.0044872253
24	0x3d8ea1f7	0.06964486
25	0x3cc45438	0.02396594
26	0x3d8573dd	0.0651624
27	0x3d20ea53	0.03928597
28	0x3d33f3ac	0.043933555
29	0x3d3d81f9	0.04626653
30	0x3cf73f78	0.030181631
31	0x3d0b2153	0.033967327
32	0x3c9c9012	0.019111667
33	0x3ccdd578	0.025126204
34	0x3ba20022	0.0049438635
35	0xbd28e30b	-0.04123215
36	0x3d842b49	0.064535685
37	0x3d2060f9	0.03915498
38	0x3beb5b08	0.0071824826
39	0x3d5ea769	0.054358874
40	0x3cd20619	0.025637673
41	0x3c8f40e4	0.017486997
42	0x3d415f3b	0.04720996
43	0x3d9d5043	0.07681324
44	0x3d0756e9	0.03304187
45	0xbb937ba8	-0.004500825
46	0x3ce9ae4f	0.0285255
47	0x3d6e814e	0.058228783
48	0x3d2e67c3	0.042579424
49	0xbb3d37e1	-0.0028872418
50	0x3d21c8f8	0.0394983
51	0x3d6db0cb	0.05802993
52	0x3cd5834e	0.026063588
53	0x3d1b8f77	0.037978616
54	0x3d4e3dc8	0.050351888
55	0xbb062dea	-0.0020474144
56	0x3d648b46	0.055796884
57	0xbd3bdabc	-0.0458629
58	0x3da284c9	0.07935483
59	0x3d24a1c5	0.040193338
60	0x3d12e1d4	0.035859898
61	0x3cb4ea6a	0.022084434
62	0x3d00fd3a	0.031491496
63	0x3d5d40d9	0.05401692

bn1d.running_mean f4 [64]
0	0x3f26a053	0.65088385
1	0x3f350c1d	0.7072161
2	0x3f2845cb	0.65731496
3	0x3f3dede7	0.74191135
4	0x3fa3ed52	1.28068
5	0x3f15a973	0.58461684
6	0x3f8c7053	1.0971779
7	0x3f62317e	0.8835677
8	0x3f62c644	0.8858378
9	0x3e2d7328	0.1693846
10	0xbf1dd2c1	-0.6164971
11	0x3f6d5a1d	0.92715627
12	0x3f54f7f9	0.83190876
13	0x3fc1fcf6	1.5155323
14	0x3f463ae8	0.77433634
15	0x3f289353	0.658498
16	0xbe9fc378	-0.31203818
17	0xbefd9735	-0.49529424
18	0x3f3483f8	0.7051387
19	0x3ef062d2	0.46950394
20	0x3f5bea03	0.8590395
21	0x3f485e5e	0.7826899
22	0x3fc97aa3	1.5740551
23	0xbddc5730	-0.10758817
24	0x3fa887e8	1.3166475
25	0x3ee69854	0.45038092
26	0x3f1322d0	0.57474995
27	0x3f0afa6d	0.5428837
28	0xbc61542b	-0.013752977
29	0x3fb83b86	1.4393165
30	0x3ef6fe65	0.48240963
31	0x3f4752f9	0.7786098
32	0x3f4a1eaa	0.7895304
33	0x3f2d101a	0.67602694
34	0x3f75f5a6	0.96077955
35	0xbfa683b1	-1.3008939
36	0x3f65c975	0.89760524
37	0x3f59bec8	0.85056734
38	0x3f930d4e	1.1488435
39	0x3e9cd0d4	0.30628073
40	0x3f55c1ad	0.8349865
41	0x3d803137	0.06259387
42	0x3f3a2d35	0.7272523
43	0x3f970223	1.1797527
44	0x3fca6311	1.5811483
45	0x4039dd83	2.904145
46	0xbf11ce29	-0.569552
47	0x3f4bbada	0.7958199
48	0x3f16a017	0.5883803
49	0x3f3273cf	0.6970796
50	0x3ec44f68	0.38341832
51	0x3f4aae9d	0.7917269
52	0xbff5e72b	-1.9211172
53	0x3f3ab7eb	0.72936887
54	0x3fa98e41	1.3246537
55	0xc01bb885	-2.4331372
56	0x3f870f54	1.0551553
57	0xc0205dfc	-2.5057364
58	0x3e48959c	0.19588321
59	0x3f6b4af1	0.91911227
60	0x3fbaff4e	1.4609163
61	0x3ef36a93	0.47542247
62	0x3ee77516	0.45206517
63	0x3ee4658a	0.44608718

bn1d.running_var f4 [64]
0	0x3fb13b90	1.3846302
1	0x3fd07af3	1.6287521
2	0x40432d4e	3.0496402
3	0x3f72b73f	0.9481086
4	0x40463957	3.0972497
5	0x40417f04	3.0233774
6	0x407fb44f	3.9953802
7	0x40656718	3.5844173
8	0x403250fc	2.786193
9	0x405e661b	3.474982
10	0x3f9aac53	1.2083839
11	0x3fa7c8fd	1.3108212
12	0x408c24ab	4.379476
13	0x40c4b7b8	6.1474266
14	0x3fbc009f	1.468769
15	0x408e3391	4.4437947
16	0x400ae56d	2.170253
17	0x402dd97c	2.7163992
18	0x4016170c	2.3451567
19	0x4046dc5f	3.1072004
20	0x3fb3aac2	1.4036486
21	0x408b146c	4.346243
22	0x402e0371	2.71896
23	0x3f9a62ff	1.2061461
24	0x40603ec6	3.5038314
25	0x3f850ea6	1.0395095
26	0x3f8c47c8	1.0959406
27	0x3fd30b9d	1.6487919
28	0x400edc13	2.2321823
29	0x408617de	4.1904135
30	0x400533c8	2.0812855
31	0x4035ce0e	2.8407016
32	0x3ff913b5	1.9459139
33	0x3fe0f9d0	1.7576237
34	0x4021cb96	2.528051
35	0x3ff6e386	1.9288185
36	0x3fe0f343	1.7574238
37	0x400286cd	2.0394776
38	0x403f8897	2.9927118
39	0x3fbbf8e3	1.4685329
40	0x40335f1d	2.8026803
41	0x400a2d71	2.1590235
42	0x40714c80	3.7702942
43	0x4089625d	4.293257
44	0x4090df28	4.5272408
45	0x409fc1cb	4.9924064
46	0x3f9b9359	1.2154342
47	0x3ff35471	1.9010144
48	0x4004818b	2.0704067
49	0x3f9483f5	1.160277
50	0x403c7aa1	2.9449847
51	0x4046d901	3.1069949
52	0x4026150d	2.5950348
53	0x40262e80	2.5965881
54	0x40904303	4.50818
55	0x40865ce0	4.1988373
56	0x3fbe7c81	1.4881746
57	0x401f977f	2.4936216
58	0x404cd44e	3.200458
59	0x4037b3d7	2.8703516
60	0x406a8001	3.6640627
61	0x40282457	2.627218
62	0x402a21f9	2.6583235
63	0x40040160	2.062584

line1.weight f4 [64, 72]
0	0x3cfe04d3	0.03100816
1	0x3c1622ea	0.009163598
2	0x3d431e3e	0.047636263
3	0x3d3776db	0.044791084
4	0x3cf8e7bb	0.030383935
5	0x3d3ae0c6	0.045624517
6	0x3c80a1fb	0.015702238
7	0x3dc7693c	0.09736869
8	0xbd6a5681	-0.057211403
9	0xbb3568cd	-0.0027680874
10	0x3b91e002	0.0044517526
11	0xb9c08c5e	-0.00036725675
12	0xbafbce66	-0.0019211292
13	0xbd7a6ac6	-0.061136983
14	0xbd86ba4c	-0.06578502
15	0xbb06f623	-0.0020593486
16	0x3d5359ea	0.05159942
17	0xbd5e3add	-0.054255355
18	0xbd269830	-0.04067248
19	0xbd18e6c8	-0.037329465
20	0x3d97f2f0	0.074193835
21	0x3ca2160f	0.019785909
22	0xbdeaf2da	-0.114721015
23	0x3b1d4f66	0.0024003624
24	0x3dd439b5	0.10362569
25	0xbe08ed3a	-0.13371745
26	0x3d80536d	0.06265912
27	0xa8b94a54	-2.057136e-14
28	0x3c171d6b	0.009223322
29	0x3d2c1b2b	0.042018097
30	0x39d94298	0.00041439082
31	0x3d998019	0.07495136
32	0xbc565dbb	-0.0130838705
33	0x3bcbc81f	0.0062189247
34	0xbc34ec05	-0.0110426
35	0xbd09861d	-0.033575166
36	0x3d0d6b10	0.03452593
37	0xbd90f430	-0.07077825
38	0xbc70383a	-0.014661843
39	0x3a37eec4	0.0007016475
40	0x3c741627	0.01489786
41	0xbd3d87d5	-0.046272118
42	0x3b9d61d7	0.004802923
43	0xbd1747a2	-0.03693355
44	0x3d3a735a	0.045520164
45	0x3bd1a774	0.006398136
46	0xbc9a71a0	-0.018853009
47	0x3d380529	0.044926796
48	0xbc1105ac	-0.00885145
49	0x3db7bc0f	0.08971416
50	0xbd9dce6b	-0.07705387
51	0x3bb24809	0.005440716
52	0x3dc0a348	0.094061434
53	0x3cc7be6a	0.024382789
54	0x3d87d18e	0.06631766
55	0xbd037849	-0.032097135
56	0x3c9754e8	0.018473104
57	0x3d50b9e6	0.050958537
58	0xbd996934	-0.07490769
59	0x3d44ff80	0.048095226
60	0x3cda3c6c	0.02664014
61	0xbbea176b	-0.007143905
62	0x3c261d69	0.010138848
63	0xbcf7eb6e	-0.030263629
64	0xbd6ed4f8	-0.05830857
65	0x3d6b7bb3	0.057491016
66	0x3d32ee7e	0.043684475
67	0x3da71511	0.08158315
68	0x3da4b7b5	0.08042852
69	0x3d85c683	0.06532004
70	0x3ce7a3c1	0.028276326
71	0x3d54b672	0.051931806
72	0xbaae206b	-0.0013284808
73	0x3d42246f	0.047398027
74	0xbcd031d7	-0.02541439
75	0x3d28c2fb	0.041201573
76	0xbd8d9eea	-0.06915076
77	0xbcef8c08	-0.029241577
78	0x3d267a2f	0.040643867
79	0xbd2e7b5a	-0.042598106
80	0x3c6fe418	0.014641784
81	0x393a5e69	0.00017773513
82	0x3d276df7	0.040876355
83	0x3cabe651	0.020983847
84	0xbc99382e	-0.018703546
85	0x3bebb3b4	0.007193053
86	0x3d12db0e	0.035853438
87	0x3b078ff7	0.0020685175
88	0x3def3610	0.116802335
89	0xbcba0d43	-0.022711402
90	0x3c95ad37	0.018271072
91	0xbcc14476	-0.023592215
92	0x3b4b09f9	0.0030981286
93	0xbc277e04	-0.010222916
94	0xbbbfe2e1	-0.0058559035
95	0x3d2e7a8c	0.04259734
96	0xbc04a773	-0.008096564
97	0xbc40ecfe	-0.011775253
98	0xbd5b715f	-0.053574916
99	0xa97591ce	-5.4527394e-14
100	0xbbfa7d9d	-0.007644369
101	0x3cbbbc44	0.02291692
102	0x3a16d4f7	0.000575378
103	0x3d4b2c75	0.049602944
104	0x3d27b8ab	0.040947597
105	0x3bc88165	0.0061189407
106	0xbd8e9286	-0.06961541
107	0xbd5750ba	-0.05256722
108	0x3bb0f905	0.005400779
109	0xbd9722d8	-0.07379693
110	0x3c8630f0	0.016380757
111	0x3d9f2d59	0.07772321
112	0xbc01c8d8	-0.00792142
113	0xbd83d67e	-0.064373955
114	0x3d7651ae	0.06013649
115	0x3d41694c	0.04721956
116	0xbd994ba1	-0.07485128
117	0xbcd06f63	-0.025443738
118	0x3d18fc71	0.037350122
119	0x3d2e5786	0.042563938
120	0xbc636cdc	-0.013880935
121	0x3d8a62a4	0.067570955
122	0xbcb1c5dd	-0.021700794
123	0xbd2b79d6	-0.04186424
124	0xbdb8c7e4	-0.09022501
125	0x3b9e2b84	0.004826965
126	0xbbe506d3	-0.006989339
127	0xbd3dab4c	-0.04630594
128	0xbb64d017	-0.003491407
129	0x3d1fae0e	0.03898435
130	0xbd4b832c	-0.049685642
131	0x3d4a9561	0.049458865
132	0x3c995288	0.018716112
133	0x3da26679	0.07929701
134	0x3da8ad01	0.08236123
135	0xbd074184	-0.033021465
136	0x3cbbf853	0.022945559
137	0xbcdd6ee4	-0.027030416
138	0x3ac9c2f6	0.0015393186
139	0xba773af2	-0.0009431086
140	0xbd6e98d6	-0.058251224
141	0x3d0d3c0d	0.034481097
142	0xbd9aa92d	-0.07551799
143	0x3daa318f	0.08310234
144	0xbb24d923	-0.0025153838
145	0x3d6a9bd8	0.05727753
146	0xbba5a7fe	-0.0050554266
147	0x3a3681aa	0.00069620705
148	0xbca32497	-0.019914908
149	0x3ba43fb3	0.0050124764
150	0xba8110d5	-0.0009846935
151	0xbd209cef	-0.039212164
152	0xbd410b68	-0.04713002
153	0xab84d14c	-9.437256e-13
154	0x3bc77112	0.006086477
155	0xbc29c4ec	-0.010361891
156	0xbb556178	-0.0032559317
157	0xbc103ece	-0.008804036
158	0xbce3b33b	-0.027795425
159	0xbc26635a	-0.010155523
160	0xbd67d0e3	-0.056595694
161	0x3d0c4e55	0.03425439
162	0xbaaf985a	-0.0013396845
163	0x3b8be092	0.004268714
164	0xb4cbe0a1	-3.7975136e-07
165	0xbc9304c4	-0.017946608
166	0xbcf5ad47	-0.029989852
167	0xbd38fc64	-0.045162573
168	0xbc7b71f3	-0.015346992
169	0x3c0c2647	0.008554048
170	0xbca07941	-0.019589068
171	0x238efb1c	1.550202e-17
172	0x3be10a07	0.0068676504
173	0x3c138da7	0.0090059405
174	0x26c14da2	1.3413108e-15
175	0xbd21c2db	-0.03949247
176	0xbc7a19b5	-0.015264918
177	0x38c92b6f	9.592517e-05
178	0x3a928c29	0.0011180687
179	0xbd10c883	-0.035347473
180	0x3c0d7063	0.008632752
181	0x3d9b7dc3	0.075923465
182	0x3c57bbdf	0.013167351
183	0xbd2aac5b	-0.041668277
184	0x3b50b699	0.0031847118
185	0x3d589676	0.052877866
186	0xbd735739	-0.059409354
187	0xbcf8aac3	-0.030354863
188	0x3da755a5	0.08170632
189	0xbb8c0fdb	-0.004274351
190	0xbc01f3c5	-0.007931654
191	0xbd126959	-0.035745
192	0x3c8f8ff9	0.017524706
193	0x3d8edc00	0.069755554
194	0x3d0b97b5	0.034080226
195	0x3c30c45d	0.010789004
196	0x3d08246f	0.03323787
197	0x3dc3c737	0.095594816
198	0xbc19ae11	-0.00937988
199	0xbc584da9	-0.013202109
200	0x3b0948db	0.0020947966
201	0x3cec494c	0.028843544
202	0x3d860dd7	0.065456085
203	0x3d030a65	0.031992335
204	0x3c4e335b	0.012585486
205	0x3988d821	0.0002610097
206	0xbc9afa98	-0.01891832
207	0xbba22917	-0.004948746
208	0xbc1915d3	-0.009343582
209	0x3b98f545	0.0046679103
210	0x3d64204e	0.05569487
211	0xbc74bbc8	-0.014937349
212	0xbcfb52d8	-0.030679151
213	0xbbd8f93e	-0.006621509
214	0x3d61ca96	0.05512484
215	0xbcc0f089	-0.023552196
216	0xbca13022	-0.019676272
217	0xbc4677b2	-0.0121134985
218	0xbc81ead9	-0.015859054
219	0x3d3aba7b	0.045587998
220	0x3dd3e332	0.103460684
221	0x3d6f207f	0.0583806
222	0xbc377a11	-0.0111985365
223	0x3c805b3c	0.015668504
224	0xbc2bcfb8	-0.010486536
225	0xbbe09821	-0.0068540727
226	0xbb6e2103	-0.0036335594
227	0xbcf8a665	-0.03035278
228	0x3bad2353	0.005283752
229	0x3c37b4cd	0.01121254
230	0x3b855716	0.0040692193
231	0x3cb0db96	0.021589082
232	0xbb900c1e	-0.0043959757
233	0xbcde1c19	-0.027113007
234	0x3dad6089	0.08465678
235	0x3d85a830	0.0652622
236	0xbbb5605a	-0.0055351676
237	0xbcc27ed5	-0.023742119
238	0xbdf9710e	-0.121797666
239	0x3cc79871	0.024364682
240	0x3e18d61b	0.14925425
241	0xbdc3ae3a	-0.095547155
242	0x3cbfc6b3	0.023410177
243	0x25292394	1.4670468e-16
244	0xbad5aa10	-0.0016301293
245	0xbcfd5e49	-0.030928748
246	0x3b32a540	0.0027259141
247	0xbce97d30	-0.028502077
248	0xbcbc594c	-0.022991799
249	0x3c6cdf96	0.014457604
250	0x3d11ad76	0.035565816
251	0xbdbb0406	-0.09131627
252	0x3d0b34f0	0.033986032
253	0xbd012bbb	-0.031535845
254	0x3d38ba08	0.04509929
255	0xbcd2b57f	-0.02572131

line1.bias f4 [64]
0	0x3a6db9c7	0.00090685155
1	0xbb175c9b	-0.0023095969
2	0xb9b552ac	-0.00034584606
3	0x3daf074b	0.08546313
4	0x3d77be02	0.06048394
5	0x3cb51a25	0.022107193
6	0x3bcefea1	0.006316975
7	0x3d321b27	0.043482926
8	0x3da6c054	0.081421524
9	0x3d26c29f	0.04071295
10	0xbcb2ddaa	-0.021834213
11	0xbb405cc4	-0.0029352168
12	0x3adb301f	0.0016722715
13	0x39bb596a	0.00035734038
14	0x3ce60ee6	0.028083276
15	0xbb47abf7	-0.003046749
16	0x3d54ad13	0.05192287
17	0x3d65a9db	0.05607019
18	0xbcd451eb	-0.025917968
19	0x3c8e00d1	0.017334374
20	0x3bc85f52	0.0061148787
21	0x3c4f5cbe	0.012656389
22	0x3ca86d7f	0.020560024
23	0x3cf1debc	0.029525153
24	0x3d5156bc	0.051108107
25	0x3d74ca36	0.059763156
26	0x3d1cb3e9	0.038257513
27	0x3dbbea52	0.091755524
28	0x3cad7d65	0.021177957
29	0xba4868f2	-0.00076450326
30	0xbce4bea9	-0.027922945
31	0xbaedc22b	-0.0018139532
32	0x3cb4fb6e	0.022092547
33	0xbab3c18a	-0.0013714295
34	0xbc644b0e	-0.01393391
35	0xbd8d7bd0	-0.06908381
36	0x3cdeb902	0.027187828
37	0x3bd065ab	0.006359776
38	0xb8bc0ccd	-8.966923e-05
39	0x3d90b3c5	0.07065538
40	0xbba0b511	-0.0049043973
41	0x3d0a7a45	0.03380801
42	0x3c951982	0.01820064
43	0x3cf3cda8	0.02976115
44	0xbba4e110	-0.0050317124
45	0xb764a041	-1.3627171e-05
46	0xbcb026cf	-0.02150288
47	0x3cd7693f	0.026295302
48	0xbc8bb605	-0.017054567
49	0xbb2b880f	-0.0026173627
50	0x3d387dce	0.04504185
51	0x3d0ba9b9	0.034097407
52	0x3c40384e	0.011732174
53	0xbc189cb3	-0.009314704
54	0xbc6f4335	-0.014603426
55	0x3ca77b9d	0.020444686
56	0x3d2f039e	0.04272806
57	0xbd5fe917	-0.05466565
58	0x3d2812be	0.0410335
59	0xba158872	-0.0005704231
60	0x3bc6ce7f	0.0060670967
61	0x3a8da35d	0.0010806132
62	0xbce113fa	-0.027475346
63	0xbc63d8d1	-0.0139066735

line2.weight f4 [2, 64]
0	0xbd8a5137	-0.06753772
1	0xbdfe8328	-0.1242736
2	0x3d1e87fa	0.038703896
3	0xbe13ee3d	-0.1444635
4	0xbdd13d4d	-0.1021677
5	0xbe14178e	-0.1446211
6	0xbe10bb43	-0.14133935
7	0x3e1869b4	0.14884073
8	0xbc947be9	-0.018125491
9	0x3e10ff2f	0.14159845
10	0x3bcc7e55	0.006240646
11	0x3d943338	0.07236332
12	0x3d8b1e23	0.067928575
13	0xbde73336	-0.112890646
14	0xbcb26315	-0.021775762
15	0x3dcdefb7	0.100554876
16	0x3d233a8f	0.039850768
17	0x3dde6af7	0.10860246
18	0x3e0d2fa2	0.13787702
19	0x3e23dfbb	0.16003315
20	0xbdaef3ab	-0.0854257
21	0xbd7aa3dd	-0.06119143
22	0xbc800a3f	-0.015629886
23	0xbe13a967	-0.1442009
24	0xbe07e715	-0.13271745
25	0x3c152b30	0.009104535
26	0xbe177862	-0.14792016
27	0xbe18f471	-0.14936997
28	0x3dfec619	0.12440128
29	0xbe1e6023	-0.15466361
30	0x3e0312cb	0.12800138
31	0x3d51f997	0.051263418
32	0xbc07db6e	-0.008292062
33	0x3d7be9c5	0.061502237
34	0x3d3741ef	0.044740614
35	0xbd5cc4e3	-0.053898703
36	0xbe286c20	-0.16447496
37	0xbe2fb29c	-0.17157978
38	0x3d69443a	0.05694983
39	0xbdd0d63d	-0.10197113
40	0x3db82acb	0.08992537
41	0xbd2ad86d	-0.041710306
42	0x3e2e0d9c	0.16997379
43	0xbdadee1e	-0.08492683
44	0xbd5c09b4	-0.05372019
45	0xbcb25265	-0.021767804
46	0x3e35bfe6	0.17748985
47	0xbe1f03f3	-0.1552885
48	0x3dcc3507	0.09971052
49	0xbd7fac96	-0.06242045
50	0x3d4afb86	0.049556278
51	0xbe1c2149	-0.15247072
52	0xbc287239	-0.010281139
53	0x3e170e57	0.14751564
54	0xbdfc183b	-0.12309309
55	0x3e050522	0.1299024
56	0xbd9410dc	-0.07229778
57	0x3a82e077	0.0009985109
58	0x3e40b956	0.188207
59	0xbac0c19c	-0.0014706138
60	0xbe106f6e	-0.14105007
61	0x3d6379df	0.055536147
62	0xbe073a03	-0.13205723
63	0x3da7384a	0.08165033
64	0x3dd5d7f2	0.10441579
65	0x3d960080	0.07324314
66	0xbde87173	-0.11349764
67	0x3e309fd5	0.17248471
68	0x3e2c241a	0.16810647
69	0x3de48b85	0.11159424
70	0x3d96bdff	0.07360458
71	0xbe30287b	-0.17202942
72	0x3e2bfd16	0.16795763
73	0xbda19ba0	-0.07891011
74	0xbe127c1a	-0.14305153
75	0x3d51f125	0.051255364
76	0xbe02e9be	-0.12784478
77	0x3df36631	0.11884726
78	0x3d24443b	0.040104132
79	0xbdffae31	-0.12484396
80	0xbe7b140a	-0.24519363
81	0xbcd812c6	-0.02637614
82	0x3bfe47d7	0.007760029
83	0xbc137627	-0.009000338
84	0x3cc74546	0.024325024
85	0x3d8ec1de	0.06970571
86	0x3dde0219	0.10840244
87	0xbcb91d82	-0.022597078
88	0x3e308164	0.17236859
89	0x3e2b3f71	0.1672342
90	0x3dbdd14c	0.09268436
91	0x3dc88d4a	0.09792574
92	0xbe2a16fc	-0.1661033
93	0x3d78f74c	0.060782716
94	0xbe0ba589	-0.13637365
95	0xbd87e399	-0.06635208
96	0x3e23f41c	0.16011089
97	0xbd6dada9	-0.058026943
98	0xbe04d946	-0.12973508
99	0x3bb2b93d	0.005454211
100	0x3cefd69c	0.029277138
101	0x3d13562a	0.035970844
102	0xbd000a00	-0.031259537
103	0x3e185a50	0.14878201
104	0xbd567f93	-0.052367758
105	0x3dad0ac8	0.08449322
106	0xbe29167a	-0.1651248
107	0x3d9371a0	0.071994066
108	0x3e33199c	0.17490238
109	0x3ddfbace	0.10924302
110	0xbc9dd5ed	-0.019267047
111	0x3d6a7c59	0.057247493
112	0xbddb1cfd	-0.106988885
113	0xbdf8704d	-0.12130795
114	0xbde6566f	-0.11246955
115	0x3d7f3330	0.062304676
116	0xbe00446a	-0.12526098
117	0xbcb7fbbb	-0.022458902
118	0x3db88d1b	0.09011289
119	0x3d6e7a6c	0.05822222
120	0x3dcd22a0	0.1001637
121	0x3d8e68a5	0.06953553
122	0xbcd2eb7d	-0.025747055
123	0xbe269d47	-0.16270934
124	0x3e23479f	0.1594529
125	0xbd559266	-0.05214157
126	0x3cfe5963	0.031048482
127	0xbdcc0633	-0.0996212

line2.bias f4 [2]
0	0x3d8d483b	0.068985425
1	0xbca59861	-0.020214261

conv_layer5x5.weight f4 [8, 3, 5, 5]
0	0x3d111e86	0.0354295
1	0xbdeb5424	-0.11490658
2	0xbd81e4ab	-0.06342443
3	0x3bf1f4ab	0.007383903
4	0x3b453292	0.0030089957
5	0x3d540831	0.051765624
6	0x3d9eba3d	0.07750366
7	0xbcac65c5	-0.021044621
8	0xbd550403	-0.05200578
9	0xbe0a1b17	-0.13486896
10	0xbdf18a6e	-0.117939815
11	0x3d4e3b45	0.050349493
12	0x3c9745f0	0.018465966
13	0xbcd65356	-0.026162785
14	0x3da721c8	0.0816074
15	0x3c964edd	0.018348152
16	0xbcfc88e5	-0.030826995
17	0x3cb918da	0.022594858
18	0x3d9600b3	0.07324352
19	0xbd7f77ea	-0.06237022
20	0xbdb05a35	-0.086109556
21	0xbdb7d362	-0.08975865
22	0xbd3bc9fb	-0.04584692
23	0xbdc5ae70	-0.09652412
24	0xbdae0f41	-0.08499003
25	0xbd0ff616	-0.035146795
26	0xbc5e0ad6	-0.013552388
27	0x3da926e5	0.08259372
28	0xbd47b023	-0.04875196
29	0xbdc832a5	-0.09775285
30	0x3d8e3ce0	0.06945205
31	0x3d48a964	0.04898967
32	0x3dfe4ba2	0.124167696
33	0x3df6b5d3	0.12046399
34	0xbdf53c00	-0.11974335
35	0x3e2f280d	0.17105122
36	0x3e126697	0.14296947
37	0x3d4bfd0a	0.049801864
38	0x3d83a63d	0.06428192
39	0x3d735eab	0.059416454
40	0x3de49f2f	0.11163174
41	0x3d9bee76	0.07613842
42	0x3d2129b6	0.03934642
43	0xbd951535	-0.072794355
44	0xbc96ccad	-0.018408144
45	0x3e24e089	0.16101278
46	0x3dd5366c	0.10410771
47	0x3c275c7d	0.010214922
48	0x3d8d1e7c	0.0689058
49	0x3db9b922	0.090685144
50	0xbdc04b38	-0.09389347
51	0x3d7cd345	0.06172492
52	0xbb9a7075	-0.004713113
53	0xbc8b7a5a	-0.017026115
54	0xbc07e883	-0.008295181
55	0x3c95f4fb	0.018305292
56	0x3de84832	0.11341895
57	0x3cd72ccd	0.02626648
58	0xbd1d0cd4	-0.038342312
59	0xbddb1a24	-0.10698345
60	0x3daa89c5	0.08327059
61	0x3c9a0f48	0.018806115
62	0x3dc4fba5	0.0961831
63	0xbdbc6326	-0.091985986
64	0xbc979c57	-0.018507166
65	0x3dd2c7c6	0.1029201
66	0xbde95b1d	-0.113943316
67	0x3c81b68d	0.015834117
68	0xbdc00c8c	-0.09377393
69	0xbdbfcd54	-0.09365335
70	0x3cb5a8b7	0.022175176
71	0x3de2ae68	0.110684216
72	0x3e005532	0.125325
73	0x3d108d80	0.035291195
74	0x3d37cb8a	0.044871844
75	0xbdb10c63	-0.08644941
76	0xbd12db0f	-0.03585344
77	0x3d8467a6	0.06465082
78	0xbcbf55b1	-0.02335629
79	0xbd8c5a0f	-0.06853115
80	0xbdd7856d	-0.10523496
81	0xbd98fb5a	-0.074698165
82	0x3c5a00d7	0.013305864
83	0x3aac2db5	0.001313618
84	0x3d21c532	0.0394947
85	0xbd3d9be1	-0.046291236
86	0xbd11e4e4	-0.035618678
87	0xbc50526b	-0.0127149625
88	0xbcb3c02e	-0.021942224
89	0x3a288dc6	0.00064298173
90	0x3dd89470	0.10575187
91	0xbd2f21cf	-0.04275685
92	0x3d5529ab	0.05204169
93	0x3db13374	0.08652392
94	0xbdc49cd1	-0.09600223
95	0xbdbb47bc	-0.091445416
96	0x3d8f061f	0.069835894
97	0xbd63ec17	-0.055645075
98	0xbdc78e0c	-0.0974389
99	0xbdd49d5d	-0.10381577
100	0x3d968b52	0.07350792
101	0xbdd2641c	-0.102730006
102	0xbd263b73	-0.04058404
103	0x3dabc19b	0.08386537
104	0x3d86037c	0.06543633
105	0x3dd310a8	0.10305911
106	0xbdaa3337	-0.0831055
107	0xbcce2f1d	-0.02516895
108	0x3d0dc147	0.03460815
109	0xbd66e71e	-0.056372754
110	0x3cae1d0d	0.021254087
111	0xbd95449e	-0.07288478
112	0x3d8ce50c	0.06879625
113	0x3dad4fcf	0.08462488
114	0x3d6e296d	0.058144975
115	0xbc498573	-0.012299883
116	0x3d9858eb	0.07438835
117	0x3cf179c7	0.029477013
118	0x3da88e7f	0.08230304
119	0xbdebf520	-0.11521363
120	0x3d9a3ce7	0.075311475
121	0x3d20ebc3	0.03928734
122	0xbdbaa44a	-0.09113367
123	0x3daab3bf	0.08335065
124	0xbce8401b	-0.02835088
125	0x3dc050e8	0.09390432
126	0xbcae6855	-0.021289984
127	0xbd5682db	-0.052370887
128	0xbdd5f81a	-0.10447712
129	0x3b93bf57	0.0045088935
130	0xbd4774be	-0.04869532
131	0x3dbc49da	0.091937736
132	0xbc8c7ce9	-0.017149406
133	0xbdefa6ac	-0.11701712
134	0x3cc2a3ed	0.023759807
135	0x3c8cb684	0.017176874
136	0xbd31172c	-0.04323499
137	0xbdef226b	-0.116764866
138	0xbc098052	-0.00839241
139	0x3db81cf3	0.089898966
140	0xbdb2f660	-0.087383986
141	0xbccdf93b	-0.025143256
142	0x3d08a85c	0.033363685
143	0xbdae59b4	-0.08513203
144	0x3c5eca1e	0.013597993
145	0x3d9b31fe	0.07577895
146	0xbddcbafe	-0.107778534
147	0x3d33edd3	0.04392798
148	0xbd106e8f	-0.035261687
149	0xbd504a01	-0.050851826
150	0xbcd99e99	-0.026564883
151	0x3d69e26f	0.05710071
152	0xbda77130	-0.08175886
153	0x3d984ca3	0.07436492
154	0x3d4c1de3	0.04983319
155	0xbd456c03	-0.04819871
156	0x3d1d2b0b	0.038371127
157	0x3da57429	0.080787964
158	0x3dbd94a5	0.09256867
159	0x39ff87d5	0.00048738593
160	0x3dde7551	0.1086222
161	0xbd28a5e8	-0.041173846
162	0xbddf907c	-0.1091623
163	0xbdb964b1	-0.090524085
164	0x3c28f407	0.010312087
165	0x3de571dc	0.112033576
166	0x3da2ef5f	0.07955813
167	0xbca89248	-0.020577565
168	0xbd964338	-0.0733704
169	0xbdc1796a	-0.09446986
170	0x3d11e44b	0.035618108
171	0xbb757793	-0.0037455305
172	0xbd8447c8	-0.06459004
173	0xbb444ea7	-0.0029954107
174	0x3df68091	0.12036241
175	0xbe191c85	-0.14952286
176	0xbc3e1453	-0.011601525
177	0x3d1265db	0.03574167
178	0x3d28a10f	0.041169222
179	0xbd37a348	-0.04483345
180	0x3d51f553	0.05125935
181	0xbd8643d7	-0.06555908
182	0xbd3291f7	-0.043596234
183	0xbdb8cd4e	-0.09023534
184	0xbd9f7672	-0.077862635
185	0xbc0067c2	-0.007837238
186	0xbdad2ea2	-0.0845616
187	0xbe0e3e0d	-0.13890858
188	0xbdfa37c8	-0.12217671
189	0xbdc9de0a	-0.09856804
190	0xbdecff47	-0.11572128
191	0x3d71b7f6	0.05901333
192	0xbe0f62f9	-0.14002599
193	0xbddb65cf	-0.10712778
194	0x3d803a4b	0.062611185
195	0xbc4846c5	-0.012223904
196	0xbdb40b49	-0.08791215
197	0x3d20ff34	0.03930588
198	0xbe06f2c6	-0.13178548
199	0x3ce3d66b	0.027812203
200	0xbd84f427	-0.06491881
201	0x3da09d00	0.078424454
202	0xbbb867bd	-0.005627601
203	0xbd5df944	-0.054192796
204	0xb8d8e4cc	-0.00010342299
205	0x3cdce716	0.02696566
206	0xbd995d8c	-0.07488546
207	0xbd24a17f	-0.040193077
208	0xbd0277d6	-0.031852566
209	0xbd616144	-0.0550244
210	0x3db22a20	0.08699441
211	0x3d6b549c	0.057453737
212	0xbdf702e2	-0.12061097
213	0x3daddd5b	0.08489486
214	0xbcbce208	-0.023056999
215	0x39daab90	0.00041708024
216	0x3d8fe685	0.0702639
217	0x3d9fc2f1	0.07800854
218	0xbda394a8	-0.07987338
219	0x3d425ed7	0.047453728
220	0xbbcca717	-0.0062455046
221	0xbc9caaf9	-0.019124495
222	0x3d429639	0.047506545
223	0xbdb32ec9	-0.08749158
224	0x3d0bd3d6	0.03413757
225	0x3d687bbc	0.056758627
226	0x3c61f509	0.013791331
227	0x3d33d491	0.04390389
228	0x3d7eb87d	0.06218766
229	0x3bec9cff	0.007220864
230	0x3d788793	0.06067617
231	0x3d96c2f3	0.07361402
232	0xbc28e59f	-0.010308652
233	0xbdb3a91b	-0.08772489
234	0x3dcf90fc	0.101350754
235	0xbd1ceb8b	-0.03831057
236	0x3d23a8ca	0.03995589
237	0xbd97bd2e	-0.0740913
238	0x3c4712c2	0.012150468
239	0x3dba9af6	0.09111588
240	0xbc85e471	-0.01634428
241	0xbda3f12d	-0.08004985
242	0xba8a393c	-0.0010545622
243	0xbddf27b1	-0.108962424
244	0x3caf70c0	0.021416068
245	0xbdd9d556	-0.10636394
246	0xbdc8ef19	-0.09811229
247	0xbd6bdc02	-0.057582863
248	0xbd3f9e38	-0.04678175
249	0xbdbfec9c	-0.093713015
250	0xbdce503d	-0.10073898
251	0xba81a8f1	-0.0009892267
252	0xbd90fac5	-0.070790805
253	0x3d8d8bdc	0.06911442
254	0x3d418b45	0.04725196
255	0x3d1fdc3e	0.0390284

conv_layer5x5.bias f4 [8]
0	0x3dfd8efb	0.12380787
1	0xb9a7d33f	-0.00032010113
2	0x3dcb41b4	0.09924641
3	0xbcc87491	-0.024469646
4	0x3db69d1a	0.089166835
5	0xbd86b40b	-0.06577309
6	0x3bd57cce	0.006515122
7	0xbdb81fb4	-0.08990422

conv_layer3x3_1.weight f4 [12, 12, 3, 3]
0	0xbb1cdda9	-0.002393583
1	0x3dcd8d62	0.10036732
2	0x3b178091	0.0023117403
3	0x3d9a65e1	0.07538963
4	0x3dc40320	0.095709085
5	0x3d80c6ce	0.06287919
6	0x3d5e97a8	0.05434385
7	0x3bcd80b3	0.0062714457
8	0x3c02d7f2	0.007986056
9	0x3d3cc554	0.046086624
10	0x3d8f8686	0.0700808
11	0xbd630de7	-0.05543318
12	0xbc4576a3	-0.012052211
13	0x3d879da9	0.06621868
14	0xbd39d108	-0.045365363
15	0xbd965a49	-0.07341439
16	0xbdba7a85	-0.091054
17	0x3cab686e	0.02092382
18	0xbd338068	-0.04382363
19	0xbd949520	-0.07255006
20	0x3d94000b	0.07226571
21	0x3d8d9a1c	0.0691416
22	0x3d144d14	0.03620632
23	0xbd909ec9	-0.07061536
24	0xbdae599b	-0.08513185
25	0x3d1b051e	0.037846677
26	0xbd249128	-0.040177494
27	0xbd43722c	-0.047716305
28	0xbdd871a3	-0.105685495
29	0x3d6ea527	0.05826297
30	0x3dbe5772	0.092940226
31	0xbd62e667	-0.05539551
32	0xbd64ac13	-0.055828165
33	0xbd37d446	-0.044880174
34	0xbc036d08	-0.008021601
35	0xbd752462	-0.05984915
36	0xbdd610d6	-0.1045243
37	0xbc95b22c	-0.018273436
38	0x3cd2ca42	0.02573121
39	0xbd5a3595	-0.053273756
40	0xbce92435	-0.028459648
41	0xbdde98c6	-0.10868983
42	0x3c3ca52d	0.01151399
43	0x3d65c125	0.0560924
44	0xbd1f1026	-0.03883376
45	0x3d908992	0.070574895
46	0xbd92b5cc	-0.07163581
47	0xbdc152bf	-0.09439611
48	0xbd3f1fd7	-0.046661224
49	0x3cd3a2c9	0.025834458
50	0xbd234854	-0.0398639
51	0x3cdcbdfb	0.026946058
52	0x3d173082	0.036911495
53	0xbcd00b20	-0.02539593
54	0x3d48df8d	0.04904132
55	0xbda2fa88	-0.07957941
56	0x3d69585a	0.056969024
57	0x3d5b60ae	0.053558998
58	0xbcb24825	-0.021762917
59	0x3b0a8eb2	0.0021142182
60	0xbd3da1ff	-0.04629707
61	0xbbe72409	-0.0070538563
62	0xbd8621e7	-0.06549435
63	0xbb9efed0	-0.0048521534
64	0xbd079ede	-0.033110492
65	0xbd658cfa	-0.05604265
66	0x3cd3732b	0.025811752
67	0xbdbe4d95	-0.09292141
68	0xbd329d1e	-0.04360687
69	0xbdd2603c	-0.102722615
70	0xbda78e4b	-0.08181437
71	0x3d66fd60	0.05639398
72	0x3c8a3fa3	0.016876047
73	0xbdc07e48	-0.09399086
74	0x3c5ecc6a	0.013598541
75	0xbdc58818	-0.096450984
76	0xbd95c41f	-0.07312798
77	0xbda2836d	-0.07935224
78	0xbccffac7	-0.025388135
79	0x3bccf53e	0.006254821
80	0xbba71bb7	-0.0050997394
81	0xbd867eb0	-0.065671325
82	0xbdaff823	-0.0859225
83	0xbced303e	-0.028953668
84	0xbdfb4de5	-0.122707166
85	0xbcf9e2b2	-0.030503605
86	0x3c9d5a4b	0.019208094
87	0xbde0ab9b	-0.10970231
88	0xbd8e8888	-0.06959635
89	0xbcaa137f	-0.02076125
90	0xbd6b8d0f	-0.05750757
91	0xbdcb5cd1	-0.09929813
92	0x3ccfc744	0.025363572
93	0x3d0c52f2	0.03425879
94	0x3cb9ab9d	0.02266484
95	0x3cd88ec5	0.026435265
96	0xbc939a87	-0.01801802
97	0x3d4d878d	0.0501781
98	0xbdb858df	-0.09001326
99	0xbd8a908c	-0.067658514
100	0x3b1bcc32	0.0023772833
101	0x3d212ad9	0.039347503
102	0xbd0dc2a2	-0.034609444
103	0xbddedf76	-0.108824655
104	0xbd648fff	-0.055801388
105	0xbc99b6f7	-0.018764002
106	0xbcc69c7d	-0.024244541
107	0xbdd4cf5d	-0.10391114
108	0xbc871064	-0.016487308
109	0xbd9984ca	-0.07496031
110	0x3d06aff1	0.032882635
111	0x3d8aa380	0.067694664
112	0xbdc1178c	-0.09428319
113	0x3d188833	0.037239265
114	0x3d22177a	0.03957317
115	0xbcfc5b36	-0.030805212
116	0x3d92ad47	0.07161956
117	0x3d0c9bdf	0.034328338
118	0x3ca5edd1	0.020255001
119	0x3d5dee92	0.054182597
120	0xbbd85047	-0.0066013667
121	0xbd951f4f	-0.07281362
122	0x3da14a5c	0.07875511
123	0xbd6e2505	-0.058140773
124	0x3d4d9657	0.050192203
125	0xbdac0c25	-0.08400754
126	0xbd78839d	-0.06067239
127	0x3d11277e	0.035438053
128	0xbd1166ec	-0.035498545
129	0xbd046cd2	-0.03233034
130	0xbd0a657b	-0.033788186
131	0x3d894cab	0.067040764
132	0x3dd4ed9b	0.10396882
133	0xbd756479	-0.05991027
134	0xbc7fa46d	-0.015603167
135	0xbd597619	-0.053091142
136	0xbdd4258e	-0.103587255
137	0xbccc13b2	-0.024911735
138	0xbcb65bd9	-0.022260593
139	0x3d8a346f	0.06748282
140	0xbd8a436c	-0.06751141
141	0x3c62d2f4	0.01384424
142	0x3d1c44ee	0.038151674
143	0x3d08e714	0.0334235
144	0x3d8cc104	0.06872752
145	0x3b1ce115	0.002393787
146	0xbd960aac	-0.07326254
147	0x3be13b7b	0.0068735457
148	0xbb105216	-0.0022021583
149	0x3dc6d562	0.09708668
150	0x3de5c935	0.11220018
151	0x3d80fd85	0.06298355
152	0x3d516294	0.051119402
153	0xbd850207	-0.06494527
154	0x3bb9b978	0.0056678616
155	0xbd747f0b	-0.05969147
156	0xbd4a76ec	-0.04942982
157	0x3d840ba5	0.064475335
158	0xbd6a27ea	-0.05716697
159	0xbd11ab05	-0.035563488
160	0xbcc0bc40	-0.023527265
161	0xbdba5d41	-0.09099818
162	0x3d982770	0.07429397
163	0x3cdf9bb6	0.027295928
164	0xbdc50046	-0.09619193
165	0x3db73e0b	0.08947381
166	0xbca0ed1b	-0.01964431
167	0x3d57d25c	0.05269085
168	0xbd5287bc	-0.051398978
169	0xbd7dc07e	-0.061951153
170	0x3d74dbeb	0.059780043
171	0x3cd394dc	0.025827818
172	0x3d9c1176	0.07620518
173	0xbd082b32	-0.03324432
174	0xbd97bd94	-0.07409206
175	0xbd610a62	-0.054941542
176	0x3d60496f	0.05475753
177	0xbda84d8b	-0.08217915
178	0x3d3d66a9	0.046240482
179	0x3dfec6f2	0.124402896
180	0x3dc2ae8b	0.09505948
181	0xbd4bd94b	-0.049767774
182	0x3ca18f84	0.019721754
183	0x3daf5c7a	0.085625604
184	0xbd277d3f	-0.04089093
185	0x3d03bc18	0.032161802
186	0x3d846bc0	0.06465864
187	0x3d865d08	0.06560713
188	0xbdd450aa	-0.10366948
189	0xbc88e754	-0.016711868
190	0x3d025158	0.031815857
191	0x3d983dd7	0.0743367
192	0xbd37c6fc	-0.0448675
193	0x3be4950c	0.0069757756
194	0xbda2f5b5	-0.07957021
195	0xbda9c5a7	-0.08289652
196	0xbcf50d62	-0.029913608
197	0x3d2123a9	0.03934065
198	0x3dcbf2b6	0.09958403
199	0xbce860e8	-0.028366521
200	0xbdc166d1	-0.09443439
201	0xbd8aa56a	-0.067698315
202	0x3d84f211	0.06491483
203	0xbdb5245b	-0.08844825
204	0x3d95b5d7	0.07310074
205	0x3d49cf7d	0.049270142
206	0x3d391d9f	0.045194265
207	0xbdb66fcc	-0.08908042
208	0xbd9adb73	-0.07561388
209	0xbd855ff6	-0.06512444
210	0xbcdf4194	-0.02725295
211	0x3d388f7d	0.045058716
212	0xbda4d81b	-0.08049031
213	0x3d3acb0f	0.045603808
214	0x3db8812e	0.09009014
215	0x3d6bbfe8	0.057556063
216	0x3cc5d21c	0.02414804
217	0x3d5e35c5	0.054250497
218	0xbc93d64c	-0.01804652
219	0xbd698ec0	-0.057020903
220	0xbd325e8e	-0.043547206
221	0xbbf3a7f3	-0.0074357926
222	0x3c09212b	0.008369724
223	0x3d603bd4	0.054744557
224	0xbd9a235c	-0.075262755
225	0x3d02c1a9	0.03192297
226	0x3d87b91e	0.06627105
227	0xbd0b1e7a	-0.03396461
228	0x3dbe8ce1	0.09304214
229	0x3d5fc343	0.054629575
230	0xbd863baf	-0.065543525
231	0x3cc670e3	0.02422375
232	0x3dbc3ae0	0.09190917
233	0x3d1ffe67	0.039060976
234	0x3d844d26	0.064600274
235	0x3bb28219	0.0054476378
236	0x3d644137	0.055726256
237	0x3d6a8069	0.057251368
238	0x3d57f577	0.052724328
239	0x3cc8d874	0.024517275
240	0xbd4d3f41	-0.05010915
241	0x3d97eaa5	0.07417802
242	0xbd1dfb07	-0.038569476
243	0xbcde513f	-0.02713835
244	0xbce32aea	-0.027730424
245	0x3d00bdc6	0.031430982
246	0xbca21965	-0.0197875
247	0xbd7cc045	-0.0617068
248	0xbd2b1680	-0.041769505
249	0xbd2609b3	-0.040536594
250	0xbd88d36c	-0.066809505
251	0x3db25b81	0.08708859
252	0x3cd62b99	0.026143836
253	0x3ce20875	0.027591923
254	0xbd681a2c	-0.056665584
255	0x3b80e9a9	0.0039341045

conv_layer3x3_1.bias f4 [12]
0	0x3df65c9f	0.12029385
1	0xbc828de4	-0.0159368
2	0xbd3de8f6	-0.046364747
3	0x3d5565ac	0.052098915
4	0x3d57e7d8	0.052711338
5	0x38aeb918	8.331443e-05
6	0xbd1ae910	-0.037819922
7	0x3c96e09b	0.018417647
8	0xbcde0b28	-0.02710493
9	0xbdb9ed64	-0.09078482
10	0xbd11ba61	-0.035578135
11	0xbd9dd4b0	-0.077065825

conv_layer3x3_2.weight f4 [16, 16, 3, 3]
0	0xbd2076d8	-0.03917584
1	0x3d82a375	0.06378833
2	0x3d30afb6	0.04313632
3	0x3d7ffd3d	0.062497366
4	0x3c04e07d	0.008110163
5	0x3d682779	0.05667827
6	0x3d835cda	0.064141944
7	0xbd87021e	-0.06592201
8	0x3d23de1c	0.040006742
9	0x3d28f2c0	0.04124713
10	0x3da3cdc0	0.07998228
11	0xbd56a700	-0.052405357
12	0xbd9cca3b	-0.0765576
13	0xbadf267a	-0.0017025017
14	0xbd9025a7	-0.070384316
15	0xbd3c4b98	-0.04597053
16	0x3d5e9abc	0.054346785
17	0xbd0ca0ab	-0.034332912
18	0x3c4b9c26	0.012427365
19	0xbd5cb099	-0.053879354
20	0xb9be6e34	-0.00036321732
21	0x3d20c719	0.039252374
22	0x3cfe00e4	0.031006284
23	0xbcc7bfe9	-0.024383502
24	0xbcdde3a7	-0.027086092
25	0xbca34548	-0.019930497
26	0x3d5a5cf4	0.053311303
27	0x3d591568	0.05299893
28	0xbc1530a9	-0.00910584
29	0x3cc7b428	0.024377897
30	0x3a8e8656	0.0010873775
31	0xbc215959	-0.009847962
32	0xbd507901	-0.05089665
33	0x3c03d3e9	0.008046129
34	0xbd8f6d83	-0.070033096
35	0x3d11cc25	0.035595078
36	0xbda13e1a	-0.07873173
37	0x3d8357d2	0.06413235
38	0x3cb7662e	0.02238759
39	0x3d1e9917	0.038720217
40	0x3d5d2bda	0.0539969
41	0xbd94fad8	-0.07274407
42	0xbba47f82	-0.005020083
43	0xbcca69cd	-0.024708653
44	0x3ce04ba9	0.027379828
45	0x3c021939	0.007940584
46	0xbd52ead5	-0.051493485
47	0x3cce21d1	0.02516261
48	0xbc400edc	-0.011722293
49	0xbd4d381b	-0.050102334
50	0xbd193d54	-0.037412003
51	0xbba9b334	-0.0051788334
52	0xbcca3777	-0.02468465
53	0x3d66b923	0.056328904
54	0xbd34e629	-0.04416481
55	0xbcd6e518	-0.026232287
56	0xbcca4bcf	-0.024694351
57	0x3d078f28	0.03309551
58	0xbd811aa1	-0.06303907
59	0xbcd05cbf	-0.02543485
60	0x3c9487a6	0.018131088
61	0x3c84a9b8	0.01619421
62	0xbd3ce53c	-0.046117052
63	0x3beecebe	0.007287829
64	0xbd9f2183	-0.07770064
65	0x3c1d1f0b	0.009589921
66	0xbaeea3bc	-0.0018206756
67	0xbca0beff	-0.019622324
68	0xbd8be228	-0.06830245
69	0xbcf983bb	-0.030458322
70	0xbd965e5a	-0.07342215
71	0xbda8dd82	-0.08245374
72	0x3dc13599	0.09434051
73	0x3d6df50e	0.05809503
74	0xbc993abd	-0.018704766
75	0x3d808981	0.06276227
76	0x3d47ce8a	0.048780955
77	0xbc82c7a3	-0.015964335
78	0x3d6f1805	0.058372516
79	0x3c4dfff4	0.012573231
80	0xbbda58fa	-0.006663439
81	0xbc4861b8	-0.012230329
82	0x3d63526a	0.055498518
83	0xbcb738e0	-0.022365987
84	0xbd1085d3	-0.035283875
85	0x3d9d12a5	0.07669572
86	0x3dad49d5	0.08461348
87	0xbc8eb486	-0.017420065
88	0xbcd30b57	-0.025762243
89	0xbcae1a31	-0.021252723
90	0x3d1eecc9	0.038800035
91	0xbd82f504	-0.06394389
92	0x3d443db0	0.047910392
93	0x3cd760f9	0.026291357
94	0xbd6fdbbc	-0.058559164
95	0x3cad33cc	0.021142863
96	0x3d48496d	0.04889815
97	0x3bfe971a	0.0077694776
98	0xbb571224	-0.003281721
99	0xbd2b1857	-0.04177126
100	0x3d8f7d1d	0.07006285
101	0xbd5f3d86	-0.054502033
102	0xbc2002ac	-0.009766262
103	0xbd0da3e4	-0.034580126
104	0xbd30fa19	-0.04320726
105	0x3d3982d4	0.045290783
106	0xbb435314	-0.0029804157
107	0xbd790b3d	-0.060801733
108	0xbd7e1fc6	-0.06204202
109	0x3c842501	0.016130926
110	0x3d79e32e	0.06100767
111	0xbc90f14a	-0.01769318
112	0x3d53bc14	0.051693037
113	0xbd72c443	-0.0592692
114	0x3d536b3e	0.051615946
115	0x3d66d8ea	0.05635921
116	0xbd268c15	-0.040660936
117	0xbbabf823	-0.005248086
118	0xbc838828	-0.016056135
119	0x3c46ddc9	0.012137839
120	0x3cf2da19	0.029645013
121	0x3d80aa73	0.062825106
122	0xbd1883a5	-0.03723492
123	0xbd49378b	-0.049125236
124	0xbc768389	-0.015046009
125	0xbc9cdea6	-0.019149136
126	0x3d85c6c1	0.0653205
127	0x3d76be42	0.060240038
128	0x3d407c47	0.04699352
129	0x3ca46a32	0.02007017
130	0x3bc7c58c	0.0060965475
131	0x3d3a917c	0.0455489
132	0xbd60aaf0	-0.05485052
133	0x3d8fef32	0.07028045
134	0x3d122dce	0.035688214
135	0xbc450e43	-0.012027326
136	0xbd24b6ff	-0.04021358
137	0x3b163e39	0.0022925271
138	0xbd9a7547	-0.075419
139	0xbd7a1101	-0.061051372
140	0xbc9d0fc3	-0.019172555
141	0x3d2357a0	0.039878488
142	0x3d632e3e	0.05546402
143	0xbca19f6b	-0.019729337
144	0x3c92f312	0.01793817
145	0xbca11638	-0.019663915
146	0x3c160fb7	0.00915902
147	0x3d3d7498	0.04625377
148	0xbd5127e0	-0.05106342
149	0xbd295a16	-0.04134568
150	0x3c1daa40	0.00962311
151	0x3d4631fd	0.048387516
152	0xbd6a8cea	-0.057263292
153	0x3cd3a188	0.02583386
154	0x3d04b480	0.0323987
155	0x3c934eca	0.017981905
156	0x3dba7bfd	0.0910568
157	0x3c9d14d6	0.019174974
158	0x3cbe9651	0.023265036
159	0xbd049a0e	-0.03237348
160	0xbdb2b139	-0.08725209
161	0xbd632072	-0.055450864
162	0x3ce37762	0.027766887
163	0xbc2ec53d	-0.010667142
164	0xbd5b43fb	-0.053531628
165	0xbd1b4ca7	-0.0379149
166	0x3d8921d8	0.06695908
167	0x3d5b82b0	0.05359143
168	0xbc5e7ef0	-0.013580069
169	0xbd0b4ee6	-0.03401079
170	0x3d567a46	0.052362703
171	0x3cb47015	0.022026101
172	0x3b85dbae	0.0040850258
173	0x3db212dd	0.08695004
174	0xbc9ed69f	-0.019389449
175	0x3cf2cf30	0.02963981
176	0xbc9e8f2a	-0.019355375
177	0x3dbeceaa	0.09316762
178	0x3d6a55b3	0.057210635
179	0x3d45faf5	0.048335034
180	0x3b412b44	0.0029475251
181	0x3d6ddaab	0.058069866
182	0x3bb654bb	0.0055643
183	0xbda6ffa5	-0.08154229
184	0xbcc61150	-0.024178177
185	0xbd6cd768	-0.057822615
186	0xbbec4dd7	-0.0072114277
187	0x3c9ab10d	0.018883253
188	0x3d8788c7	0.06617885
189	0xbd425a47	-0.047449376
190	0x3caabcbc	0.020841949
191	0xbd8f0c44	-0.06984761
192	0xbdc0bb6c	-0.09410748
193	0xbc4db74e	-0.01255591
194	0xbd977d66	-0.07396965
195	0x3d5d168f	0.05397659
196	0xbda4235c	-0.08014557
197	0x3c2b7512	0.010464923
198	0x3d19e33d	0.037570227
199	0xbc2007ea	-0.009767512
200	0x3d3802db	0.0449246
201	0xbc47ef8c	-0.0122031085
202	0x3ca8d1e0	0.020607889
203	0x3cbf3398	0.023340032
204	0xbd836bfd	-0.064170815
205	0x3dacff39	0.08447117
206	0x3cad1ff9	0.02113341
207	0x3d072d5a	0.033002235
208	0x3db23f1d	0.08703444
209	0xbd13d55a	-0.03609214
210	0xbcc71b8c	-0.024305128
211	0x3d0ac52c	0.033879444
212	0x3cd0fcd6	0.025511187
213	0x3ccad659	0.024760412
214	0xba9b39d7	-0.0011842799
215	0x3d6a7331	0.05723876
216	0x3d817cea	0.063226536
217	0x3cf9780a	0.030452747
218	0xbd821064	-0.063507825
219	0xbb861765	-0.0040921443
220	0xbd831030	-0.06399572
221	0x3d42739e	0.047473542
222	0x3d9c61be	0.0763583
223	0x3db6d838	0.08927959
224	0xbc638840	-0.013887465
225	0x3c56fa81	0.013121248
226	0xbaedf53e	-0.0018154753
227	0xbd8cdc3a	-0.068779424
228	0xbca5d1d0	-0.020241648
229	0xbd19db7f	-0.037562843
230	0xbcc9e7b5	-0.02464662
231	0x3d4d82e5	0.05017366
232	0x3cb3c904	0.021946438
233	0xbca4eb60	-0.020131767
234	0xbca77c3c	-0.020444982
235	0x3d860c1f	0.06545281
236	0x3d0514ef	0.032490667
237	0xbd20b2f5	-0.039233167
238	0x3d08f431	0.033436004
239	0xbd4fc69d	-0.05072652
240	0xbaa1e37c	-0.0012351121
241	0xbc853588	-0.016260877
242	0x3b36b85a	0.0027880878
243	0x3d47c3d1	0.04877073
244	0x3d8a5c42	0.06755878
245	0x3c8287ab	0.015933832
246	0xbab956b8	-0.0014140224
247	0xbb5264e1	-0.0032103586
248	0x3c16ab90	0.009196177
249	0x3d8c9757	0.06864803
250	0xbb18c1d4	-0.002330889
251	0xbd8da9e6	-0.06917171
252	0x3da1214f	0.07867681
253	0xbcbf084a	-0.023319382
254	0x3db6a635	0.0891842
255	0x3d810d90	0.06301415

conv_layer3x3_2.bias f4 [16]
0	0x3cc8dacb	0.024518391
1	0x3c3af1c4	0.0114101805
2	0x3c490dbf	0.012271344
3	0x3cef6c92	0.029226575
4	0x3af47738	0.0018651253
5	0xbd15777f	-0.036490913
6	0x3d221692	0.039572306
7	0x3ce27b0d	0.027646566
8	0x3d8cb0b6	0.068696424
9	0x3dd7283f	0.10505723
10	0xbd27b99e	-0.040948503
11	0xbd62991c	-0.055321798
12	0x3c423f06	0.011855846
13	0x3bc14079	0.0058975783
14	0xbd373966	-0.044732474
15	0x3d6e8447	0.05823162
